models/ppo/model.pt (torch_old, 551766 bytes, 11 tensors)

critic.0.weight f4 [256, 8]
00000000: e1db b4be e31f f13d 2bb6 fa3d 1ecd 9a3d
00000010: beb2 173f 8628 c3bd 93c7 883e c2f6 663e
00000020: c1fa afbf 488c 7c3e da09 55be 69b3 aebe
00000030: 1de9 3e3f d636 5fbe 58a8 573e c2e9 36be
00000040: afba 2ebe 4101 a13f 0ceb e3be baff fd3e
00000050: ea67 ff3c 9cb1 49bf 77ec 213e 6636 923e
00000060: ba1d ff3e 95a4 70bf 2fa6 3abe 6071 11be
00000070: 6123 a43f 132f 853d 17e0 dc3c 5640 1bbf
00000080: 7dad 76be c6d3 a63d a114 983c c8ec a83e
00000090: 28cf 36be b61e b23e 2edc 283d 43e4 e4be
000000a0: 9f5e 56bf 0a7a 76bd 2d26 123f ae45 d03d
000000b0: d385 ddbd f4cd f33c e043 cd3e b10c 9d3e
000000c0: f977 263e 9486 51be f8cb 85be 46fb 2cbf
000000d0: f8fb b9be 17a8 e83e 0807 bf3c 555f 68be
000000e0: a2b1 013f edb9 ab3e 7e8b 26be e602 b2be
000000f0: 8ac0 09bf 6b22 1abe 49cc f13c d23c e43b
00000100: 7682 debe 55d9 09be d891 3b3e 7d92 0cbe
00000110: 08e9 14bf 4f02 59bf 6eee a63e 404c 4dbe
00000120: 9d01 353f db84 41bb 9d44 74be 2906 fc3d
00000130: eb7b ab3e 168b 163e 932d 8ebe 38fd ed3c
00000140: 2d0c cebd f100 d0bf 3252 40be 0e11 30bf
00000150: 81db 91bd 361f 90be 961c abbe 1a86 6e3e
00000160: c88c c7be 8422 a23d 8a40 e33b cc99 843d
00000170: ee7a c63e 69be 4c3e f1f9 84be 18f5 793d
00000180: 30be 6f3f 0e49 43be 72a5 74bc 18b9 cd3d
00000190: 180d 373f 3304 2abe 2343 e0be 9fb5 c13e
000001a0: 196e b9bd 725d 37be 4bf7 36bb 8937 fabc
000001b0: e9f1 fabc f628 403f e5bb bcbe 4521 273e
000001c0: 49b0 863f ec0a 043e f7d0 77be 0fab fa3b
000001d0: ded5 70bf 26cf debd 4935 373e 3c5f 2abe
000001e0: c6c5 f7be 7d1f 49be ec92 fa3e 03e5 c43e
000001f0: 7804 6f3f 63aa 333c 7688 b63e 8e8f 8c3e
00000200: da95 943f dd7a 5b3d 22de c23f aa3d d8be
00000210: 3665 afbd 48a6 c4be 29f1 c5bd c23a 8d3c
00000220: afe4 cabc 633b 21c0 fa0c d5bd 0b60 4c3e
00000230: 7179 ce3e 8dc3 013f 7bfc 8abe fac8 aa3e
00000240: a3fa 91be 278d 87bd 0062 8bbe 9267 14be
00000250: 0491 00bf b752 28be 7707 1cbc a825 59be
00000260: df66 1d3f 293b 00c0 7b76 acbd 2908 9d3d
00000270: 315d 133d 5b51 ebbc ca8f 323e ddea 2c3e
00000280: 554f 713f 835e 193e c4cf 41be a6d7 c93e
00000290: 6644 fcbe 0539 46bd 9bee 043c 7402 8a3d
000002a0: bc5d f53e 3111 58be 8269 fe3e 05f7 9cbe
000002b0: 4482 3dbe 7310 b2be 452f 8f3d 4b9e 23bf
000002c0: 19a5 8f3f c1d6 07be b768 9dbe be73 99be
000002d0: d214 15bf 56ca 86bd bf48 08bc 158c 3dbc
000002e0: 4eb2 ce3e 530d 2abe 5a25 0d3e 165b 21bf
000002f0: 5fc5 42be bc39 c2bd 0762 b93e 3b38 7cbc
00000300: 844a 0a3f d5ed cdbf 75fc 9fbd dd21 cd3e
00000310: 8ae3 773d 244d c53e ef53 1f3e c810 3d3e
00000320: edfb 5c3f cd21 8bbd 5eb3 dd3c 1f57 febe
00000330: c9f6 eabe 0873 b13d 75e8 80bd e897 0abd
00000340: 81ce 853e 2411 b1be abd9 073f 1ff0 b8be
00000350: f12a 1ebf 23bf ba3c 7e33 a23e 1ca9 98be
00000360: 3982 5d3d 0e4b 05bf a437 8c3e c577 8fbf
00000370: cdb4 e9bd d511 6cbe d1ed 44be bc45 d1bd
00000380: 2189 a8bf 5a4e aebe 1b67 dc3e 1ba2 663d
00000390: 54cb 443f 3da9 95be 3b87 263d 8174 a33c
000003a0: ba00 6ebe 4add df3e 1ff7 c9be 796c 033f
000003b0: b78a 5f3f 7308 1f3f a87a bcbe 40ff 77bd
000003c0: 38b5 233f 872c 433e a1af c43e c097 cabe
000003d0: b7ae cdbc 3851 d93e f941 683e 5761 17be
000003e0: e4d3 ab3e eff0 ef3e a753 743e d7a7 8c3e
000003f0: df2a 923e 4cd2 8a3e 0de7 b0bc 0362 ec3d
-0.35324004 0.1177366 0.12241777 0.07558654 0.59257114 -0.095292136 0.26714763 0.22555068
-1.3748399 0.24662888 -0.2080454 -0.34121254 0.7457445 -0.21798262 0.21060312 -0.17862609
-0.17063402 1.2578508 -0.44515264 0.49609166 0.03117748 -0.78786635 0.1581286 0.28557128
0.49827367 -0.9400113 -0.18227457 -0.14203405 1.2823297 0.06503119 0.026962323 -0.60645044
-0.24089618 0.08145861 0.018564524 0.3299315 -0.17852461 0.34789056 0.041225605 -0.447054
-0.8373813 -0.06017498 0.570895 0.1016954 -0.108165406 0.029761292 0.40090847 0.30673745
0.16256703 -0.20461494 -0.26132178 -0.6757091 -0.3632505 0.45440742 0.023318782 -0.22692616
0.5066167 0.33540288 -0.1626415 -0.34767836 -0.53809416 -0.15052192 0.029516356 0.006965258
-0.4345891 -0.13461812 0.18317354 -0.13727756 -0.5816808 -0.8476915 0.32603782 -0.20048618
0.70705587 -0.002952865 -0.23854299 0.123058625 0.3349298 0.14701495 -0.27769145 0.029051408
-0.10060916 -1.6250287 -0.18781355 -0.68776023 -0.07121945 -0.28148812 -0.33420247 0.23293343
-0.38974595 0.079167396 0.006935184 0.06474647 0.38765663 0.1999451 -0.2597194 0.061024755
0.9364958 -0.19070837 -0.014932023 0.100450695 0.71504354 -0.16603164 -0.4380122 0.37833878
-0.090542026 -0.1790674 -0.0027918394 -0.03054406 -0.03063293 0.750625 -0.36862102 0.16321285
1.0522548 0.12894791 -0.24200808 0.0076497863 -0.94076335 -0.10879354 0.1789142 -0.16637892
-0.48393077 -0.19640918 0.48940217 0.38455972 0.93366194 0.010965916 0.35650986 0.27453274
1.1608231 0.05358397 1.522404 -0.42234546 -0.08564226 -0.38408113 -0.09665138 0.017239932
-0.024767248 -2.5192497 -0.10402866 0.19958512 0.40327027 0.5068901 -0.27145752 0.33356458
-0.28511533 -0.066187195 -0.27223206 -0.14492634 -0.50221276 -0.16437803 -0.009523264 -0.21205771
0.61485094 -2.0036108 -0.08421036 0.07667572 0.035977546 -0.028725317 0.17437664 0.16886468
0.94261676 0.1497746 -0.18926913 0.3942234 -0.49270934 -0.04839422 0.008113529 0.06738749
0.47923076 -0.21100308 0.4968987 -0.3065721 -0.18506724 -0.34778175 0.06991438 -0.6391341
1.1222259 -0.13265516 -0.30743954 -0.29971117 -0.58234894 -0.06581561 -0.008318125 -0.011569043
0.4037041 -0.16606645 0.1378378 -0.6302961 -0.19020604 -0.09483668 0.362076 -0.015394266
0.5401995 -1.6088206 -0.07811824 0.40064898 0.060519733 0.38535416 0.15559362 0.18463433
0.8632191 -0.06793556 0.027063068 -0.49675843 -0.45891407 0.086645186 -0.06294338 -0.033836275
0.26134112 -0.3458339 0.5306651 -0.36120698 -0.61784273 0.02279622 0.3167991 -0.2981652
0.054079268 -0.5206765 0.273862 -1.1208426 -0.11411438 -0.23053677 -0.19231345 -0.10218379
-1.3166848 -0.34044152 0.43047413 0.05630694 0.76872754 -0.2923068 0.04065631 0.019953014
-0.23242465 0.43723518 -0.3944635 0.5133739 0.8732104 0.6212227 -0.3681233 -0.06054616
0.6394839 0.19059955 0.38415244 -0.395689 -0.025107725 0.42444777 0.22681417 -0.14783226
0.33560097 0.46863505 0.23860036 0.27471802 0.28548333 0.2711357 -0.021594549 0.11542132

critic.0.bias f4 [256]
00000000: e7de 7ebe cdaa 063e 168b c83e d815 a73e
00000010: 27e9 843e da33 ccbd 478b b13e 33db 443e
00000020: 47f2 2a3e c3ad 0c3f 38ad 0cbe 2db0 133f
00000030: 7845 983e d2ea 613e 43ac 843d f523 343e
00000040: 8d38 823e e02c 763e a091 5f3e c481 80bd
00000050: f981 893d ec82 c63e 672d 423e 9dde 003e
00000060: 229d b1bd 1e73 8f3e f6f9 103e 2607 a73e
00000070: 290a 253e 2be5 6d3e 4640 0e3e 554f 123f
00000080: 7aef 3c3e dab9 9f3e e337 fa3e aefe 3bbd
00000090: 80e7 a2bc 9f30 a0bd 0532 2f3e a650 503e
000000a0: 0994 013f 3c66 df3e 34d0 b83e 4aea 88be
000000b0: cf60 c83e 2add e0bd 0555 f23e 948d f0bc
000000c0: 74d0 283f 9593 d8bd 41e8 0c3e 5674 bf3e
000000d0: 0ce6 56bd db67 8d3e 63e2 843e 0f77 ca3e
000000e0: df44 f4bc 98b6 3ebe a91a 8a3e a4a1 bc3e
000000f0: 27a0 5cbe 6b7c cfbd a126 ed3d a0c0 ae3e
00000100: fcc5 653d 3948 85be d27d 1b3f 0044 153e
00000110: 2def 003e 97a8 52bd 9792 59be d0e2 0fbe
00000120: c3f3 52be 8c75 41be a27b b23e 4d8f 75be
00000130: 3dd0 0a3e d424 083c 98fa 873e 818c 6e3e
00000140: 1217 ee3d 07e9 5dbd 40b9 823e cdd2 01be
00000150: a797 f2bd 1332 4d3c 2e59 543e af51 d33d
00000160: 29b5 093d f471 843e c434 57be 18fa 913e
00000170: fc98 ccbe c3f9 be3d dfba 4f3d 8ae0 803e
00000180: ceca b23e c722 ba3e bf36 973e 6ba1 fbbd
00000190: 8b7e f3bd 7614 ad3e 364b 25bd f622 ab3e
000001a0: ee76 a93e 0b59 33bd b12e d33e c976 4f3e
000001b0: e56e b73e 25bf 9d3e 2a8b 7d3e fccf febe
000001c0: 9aa3 653e 5ad3 ec3e 4c6f cb3d 5e40 5d3e
000001d0: 6f51 e13e 7580 71bd 54f8 e83e a8a8 853e
000001e0: a251 1d3f 8b94 083f 0895 bbbd af79 fc3d
000001f0: c8dd 593e 50f9 853e 6346 f73e bc01 033f
00000200: 78f6 acbe fd7f 893b 1c9a 0b3f f95d c5bd
00000210: 2870 aebd 551e 89be a470 ecbe 371f 7cbe
00000220: c094 913e e319 f53d 39b0 6f3d 5caa 2d3e
00000230: e716 10be ad8b dfbd 0482 4abe 2c47 adbe
00000240: 9945 af3d 696f f73e 884d bc3d d308 143f
00000250: e8f2 dc3e 4c57 a43e 41bd df3d 1bb4 5e3e
00000260: 5f0b 5ebd 00d8 483e 87d1 2f3e 4fa9 4f3e
00000270: 0658 533e dee3 b13d a078 003d 999d 54be
00000280: 5c06 fe3e 871a e03e b17c ce3e a29c 31be
00000290: defc 11be bc9c 803e 1229 a03e 8afe 1f3d
000002a0: f69d f73e 4083 833e 389e 9e3e 7994 a33e
000002b0: dd11 c83e 1a59 263e c81b ff3e a170 0abd
000002c0: 3d85 d53c ff7e a63c 9083 f03c 23ce 8f3e
000002d0: b082 923e 2da6 103f 63e7 353e 079f c23e
000002e0: 4870 b73e 7c03 8e3e 3786 853e 8cfc 933e
000002f0: 44dd 13be 5661 85be 0bb3 b93e 0fb5 b33e
00000300: a182 113f fc20 cc3e b5bf 773e 2d3b 043e
00000310: ed3d e7bd a6fa c03e 5190 7d3e b7ce 503e
00000320: 1507 85be e573 c73e 0df3 c33e 5eb0 e83d
00000330: f5b2 a23c c9b4 a03e ed5a 4ebd 6475 15be
00000340: 0b11 be3e 038c d83d 35d1 053f 0438 d7be
00000350: dbb3 a33e 238d b33e fca5 39be 3d92 ae3c
00000360: fced 623e 1755 683d a74a fe3e 7705 183e
00000370: 05db 31bd 8774 2f3e d9ca 3f3e 1f36 323e
00000380: 88ec 003f 631f 973c 298c 3b3e 2690 2f3d
00000390: 251c 13be bbc7 023f edd8 503d cad8 93bd
000003a0: 1dc3 9d3e 7dce 953d 82cd 3e3e 2353 353e
000003b0: 6675 8e3e fa16 aa3d e80d 0c3e 2381 1b3e
000003c0: 6eb3 77be 8989 ffbd c092 f13e 1cc5 6b3e
000003d0: 64c9 1fbe 07e8 093f c410 493e af18 2dbb
000003e0: 56a0 d53e 8278 a73d 7257 1c3f ed25 3f3e
000003f0: 51a9 aa3d a317 81be 2e06 893e d809 3f3e
-0.24889718 0.13151093 0.39168614 0.32633853 0.2595913 -0.099708274 0.34676573 0.19224243
0.16693984 0.5495264 -0.13737953 0.576907 0.297405 0.22062233 0.06478169 0.17591842
0.2543377 0.24040556 0.21832895 -0.06274751 0.067142434 0.3877176 0.18962632 0.1258492
-0.08672549 0.28017515 0.14157853 0.3262264 0.16117157 0.23231952 0.13891706 0.571523
0.18450728 0.3119648 0.48870763 -0.04589718 -0.019885778 -0.07821774 0.17108925 0.20343265
0.5061651 0.43632686 0.36096346 -0.26741248 0.3913636 -0.10979684 0.4733049 -0.029364385
0.65943074 -0.10575024 0.13760473 0.37393445 -0.052465484 0.27618298 0.2595397 0.3954396
-0.029817997 -0.18624341 0.26973465 0.36842072 -0.21545468 -0.10131153 0.115796335 0.34131336
0.056097016 -0.26031664 0.6073886 0.14576721 0.12591238 -0.05143031 -0.21247326 -0.14051366
-0.206008 -0.18892497 0.3485995 -0.23980446 0.13555999 0.008309562 0.26558375 0.23295785
0.11625494 -0.05417731 0.2553196 -0.1267807 -0.11845332 0.012524146 0.20737144 0.10318314
0.033620033 0.2586819 -0.21016222 0.2851112 -0.39960468 0.09324982 0.050715324 0.2517131
0.34920353 0.36354658 0.29533955 -0.122866474 -0.118893705 0.33804673 -0.04035493 0.3342511
0.3309855 -0.04378609 0.4124656 0.20260157 0.35826793 0.30809894 0.24760118 -0.49768054
0.2242569 0.46254998 0.099333376 0.21606585 0.4400744 -0.058960397 0.4550196 0.26105237
0.61452687 0.5335166 -0.09159285 0.12327897 0.21276009 0.26166773 0.48295888 0.5117452
-0.3378179 0.0041961656 0.5453203 -0.096370645 -0.08517486 -0.26780954 -0.46179688 -0.24621283
0.284338 0.11967828 0.05851767 0.16959518 -0.14071237 -0.10915313 -0.1977616 -0.33843362
0.085581966 0.48327187 0.091944754 0.57825965 0.43154073 0.32097852 0.10924769 0.21748392
-0.054210063 0.19613647 0.17169772 0.2027943 0.20639047 0.0868604 0.031365037 -0.20763244
0.49614227 0.4377024 0.40329507 -0.17344907 -0.14256617 0.2511958 0.31281334 0.039061107
0.48362702 0.25686073 0.30980086 0.31949213 0.3907613 0.16244927 0.49825883 -0.033798818
0.02606451 0.020324228 0.029359609 0.28086957 0.28615332 0.56503564 0.17764048 0.38011953
0.3582785 0.27737033 0.2607896 0.28903615 -0.14439875 -0.26050824 0.3626941 0.35099074
0.5683995 0.39868915 0.24194224 0.12913199 -0.11291108 0.3769123 0.24762084 0.20391355
-0.25981966 0.38955608 0.3827137 0.11361764 0.019860724 0.31387928 -0.050379682 -0.14595562
0.37122378 0.1057358 0.5227235 -0.42034924 0.31973156 0.35068616 -0.18129724 0.021309966
0.22161096 0.056721773 0.4966633 0.14845835 -0.043421764 0.17134295 0.18729724 0.17403458
0.5036092 0.018447584 0.18315186 0.04286208 -0.14366205 0.51086015 0.050988127 -0.072190836
0.30812922 0.07314775 0.18633083 0.17707495 0.27823943 0.08305164 0.1367718 0.1518598
-0.2418954 -0.124774046 0.47182274 0.2302441 -0.15604168 0.5386967 0.19635302 -0.0026412418
0.4172389 0.08177282 0.6107093 0.18666811 0.08333076 -0.25213346 0.26762527 0.18656099

critic.2.weight f4 [256, 256]
00000000: 19ee 983d 9bc9 34bf d3b2 243e f4aa d3be
00000010: 7b7d 583d a352 693e 3fbd cc3e 11ce 11bd
00000020: 5f14 373e cbbc 253e 7c3b a7bd 21c2 293e
00000030: 690d cb3d 4d7a 8d3e cf84 dcbe ba9a ad3d
00000040: a60a 233e ffca 293e 5086 803e 33eb 173d
00000050: 29e1 35bf 3693 20be bf7c a33e ba49 9f3d
00000060: 9c75 1d3e ad6c 96be 0ce7 053e b33d 333e
00000070: 1d25 5e3e cf80 5d3c c6aa 003e d50c 1f3e
00000080: 0c36 57bf 26bd 5c3d 736d b33e 5ad8 2e3e
00000090: 56be bb3c d3c0 223e 4fe6 2f3e 873d fc3d
000000a0: c218 daba cd88 3f3e e0ba 533e e69c b8be
000000b0: 8887 703d 6ce3 443d 55ba 053d 051b 433d
000000c0: 6149 fabb 1977 1bbd 3340 863e 6a83 193e
000000d0: 3fea 403d 7ea6 2c3f 406b 653b 952e cd3d
000000e0: 5373 6c3e 88bd 96bd 2926 c23d 5129 393c
000000f0: d491 253e 9469 5e3d 5404 673e 56d4 66bd
00000100: 3884 a43e e0b2 22bf d998 5a3e 1d28 e6bd
00000110: 478c 5a3e 89a4 a6bc ce48 79bd bde6 963e
00000120: e43d 983d 54e2 5b3e 34eb 403e 03cf 493d
00000130: 5088 08bf d38d 3b3e a98a af3d 8cf2 083e
00000140: 3778 863d 0670 debe 03c2 c53e 740d 603d
00000150: b7f8 f43d 73bb 5f3d 2c46 913e d865 d6be
00000160: 2e84 3d3e 66aa 563d 4982 62bd b92d dfbd
00000170: cb5d d7bd b4ab ecbd 7959 22bf e6f0 09bf
00000180: 638c 223e a0f5 bcbd 9341 b23d c624 4d3e
00000190: 5c79 26bf e63f 6a3d 7821 1d3d beb2 063e
000001a0: 2863 a03d 034b 0b3e 05bf 8fbe 36b0 fc3d
000001b0: 82c7 a93d 309a f13b c485 183e 4f0a 4f3e
000001c0: 0d45 5ebd c6f9 df3d c50b 0e3d c0b9 14be
000001d0: 49fc 173e 804e 2cbd f67a 81bc 2f07 d7bd
000001e0: d580 153e 0322 2e3e a9fb c9be 09e9 9a3d
000001f0: 6853 edbd d66c 183e 081a 7a3e 8b1e 3b3e
00000200: 6211 f5be a23e 4c3d 517d 0c3e 5726 e6bc
00000210: 3ad4 84bd cdbc 24be 9601 e13e f046 c3bb
00000220: b747 9ebe 1dd2 bcbe 0fcc 5d3e 885d b0bc
00000230: c72f 0d3d 5926 8bbe 29f1 893d 2e53 3ebe
00000240: 94a2 b5bd b511 99bc 5754 b6be 5b23 023e
00000250: 218a 013e 0634 8b3e a8e5 1dbf d992 5b3e
00000260: 9974 8d3b 7e06 0a3f e70f 41be ab99 c43d
00000270: 9751 c13d 304d 063f 1bb7 753d b177 0bbd
00000280: 7d37 ec3d bf75 1e3e 1754 053e bd2a 413e
00000290: 4a05 bcbd 9668 8fbe 8565 283e 9916 043e
000002a0: 0281 283e 6f63 10bf 173c 08bd fb45 033e
000002b0: 94f7 a13d 4b20 ea3b 7cc1 b93e 997a 833e
000002c0: c216 913e 4d96 913d 32ef 433e b972 f8be
000002d0: 04b3 4abd 7878 033e f2c8 0d3e 062d cf3e
000002e0: 3cae 13bc 3b41 693d bf75 743e 0692 9b3e
000002f0: 57f2 3abf 48d5 0f3e 6ae1 763e 9b9e 01be
00000300: 0afc 90bd 016a d83e 7e04 223e 8910 87be
00000310: 0e8b e7bc 641b 33bc d271 b9be be4b b0bd
00000320: b484 16be e613 833d 6405 07bf eb7c 27bf
00000330: 0dc2 2bbe dfd9 c83c c4d8 5ebd ebab b43a
00000340: 7421 3abe a227 233e 4455 8b3e fc76 55be
00000350: bd6d 5cbe 4423 1f3e 236c 64bd 4921 063f
00000360: 6a53 1c3e c065 8f3e f76a 323e 6ded 903d
00000370: 3efd 2ebc 30cb 76bd e8d0 a7bd 3faa e03d
00000380: bb31 8f3d 1f94 c33e 1785 c53d 2f44 c7be
00000390: 359e 47bd f7a6 24bd 301a c2be be3c c63c
000003a0: d2ba 813d 8e7b 11bf 9fe9 cd3d 6775 393e
000003b0: 93ac 4f3d b995 dc3c 023a dcbd 568a 7f3e
000003c0: 3c66 d73e d977 32be 7fd6 ef3d 1b35 f73d
000003d0: be20 60be f7b0 a93d 23c3 9b3c 69b5 633d
000003e0: c845 8ebe 27ea 803e 10b1 973c 3875 813e
000003f0: b569 ae3d 7a4e 07bd 4342 483e 1d28 09bf
0.074672885 -0.70620126 0.16083841 -0.41341364 0.052854043 0.2278543 0.39988133 -0.03559691
0.17878865 0.161853 -0.081656426 0.1657796 0.09914667 0.2763237 -0.43070075 0.084767774
0.15922031 0.16581343 0.25102472 0.037089538 -0.7104669 -0.15681157 0.3193111 0.07777734
0.15376896 -0.29379788 0.13076419 0.17504005 0.21693845 0.01351948 0.12565145 0.15532239
-0.84066844 0.053891324 0.3504444 0.17074719 0.022917908 0.15893869 0.171777 0.12316423
-0.0016639458 0.18704529 0.20676756 -0.36057204 0.058723003 0.04806845 0.032648403 0.04763319
-0.007638142 -0.037955377 0.26220855 0.14991537 0.047098394 0.67441547 0.0035006553 0.100186504
0.23090868 -0.07360369 0.09479935 0.0113013545 0.1616891 0.054299906 0.22560245 -0.056354843
0.32132125 -0.6355419 0.21347369 -0.1123812 0.21342574 -0.020342128 -0.060860448 0.29472914
0.0743368 0.21473056 0.18839723 0.049269687 -0.53332996 0.1831582 0.08571369 0.13373774
0.06565898 -0.43444842 0.38624582 0.05470033 0.11961501 0.054622125 0.2837385 -0.41874576
0.18507454 0.0524086 -0.05530003 -0.10897393 -0.105159365 -0.11556187 -0.63417774 -0.53883207
0.15873866 -0.09226537 0.087039135 0.20033559 -0.6502893 0.057189845 0.038361996 0.13154122
0.078314126 0.13602833 -0.28075424 0.12338297 0.08290006 0.007373117 0.14894778 0.20218776
-0.05426507 0.109363124 0.034679193 -0.14523983 0.14842333 -0.04206705 -0.015805703 -0.10499417
0.14599927 0.17005162 -0.39449814 0.07563979 -0.11588174 0.14885268 0.24423993 0.1827337
-0.47864825 0.04986442 0.1371968 -0.028094454 -0.064857915 -0.16087647 0.43946522 -0.005959384
-0.3091409 -0.36879054 0.21659873 -0.021528974 0.034469392 -0.27177694 0.06735451 -0.18586418
-0.088689 -0.018685201 -0.3561122 0.127088 0.12650348 0.27188128 -0.6167855 0.21442737
0.004316878 0.53916156 -0.18853723 0.09599622 0.0943939 0.5246153 0.059989076 -0.034049693
0.11534021 0.15474604 0.13020359 0.1886396 -0.09180696 -0.2800948 0.16444977 0.12899245
0.16455463 -0.56401724 -0.03326043 0.12819664 0.0790855 0.007144963 0.3628043 0.25679472
0.28337675 0.07108746 0.19134215 -0.48525026 -0.04948713 0.12838924 0.13846186 0.40464038
-0.009013709 0.056946974 0.23873042 0.30384845 -0.7302603 0.14046204 0.24109426 -0.1265816
-0.07079323 0.42268375 0.15822026 -0.26379803 -0.028264549 -0.010931823 -0.3621965 -0.08608197
-0.1469906 0.0640028 -0.527426 -0.65424985 -0.16773243 0.024517952 -0.054405943 0.0013784146
-0.18176824 0.15933087 0.2721349 -0.2084617 -0.21526237 0.15540797 -0.05576719 0.5239454
0.15266195 0.28007317 0.17423616 0.070765354 -0.010680495 -0.06025237 -0.081941426 0.10969972
0.06991907 0.38198945 0.096445255 -0.38919207 -0.048734862 -0.040198293 -0.37910604 0.024198886
0.06334461 -0.56829154 0.10054325 0.18111192 0.05070169 0.026926862 -0.107532516 0.24955115
0.42070186 -0.17428531 0.11710834 0.12070676 -0.2188749 0.082857065 0.019013947 0.055592928
-0.27787614 0.25178644 0.018517047 0.25284743 0.08516256 -0.033033825 0.19556527 -0.53576833

critic.2.bias f4 [256]
00000000: 72d9 e43b def3 e53d ac79 553e b3ad 2d3e
00000010: f957 cebb 84d2 433e 4a2c 6cbd f15b 0e3e
00000020: 3dcf 363e a5fa 553b 54e5 e83d 3653 153e
00000030: 51b5 753e 05c9 b33d 015a 1f3d 80e7 a8bb
00000040: 4f52 a9ba 83ad aabc 43b6 56bd 555f 863e
00000050: 6aac 12bd 46ce 823e 670d 4e3c 6525 1fbc
00000060: 53b1 5f3e d8f8 60b9 3ebc 073d 2cc0 55bd
00000070: 64e0 3a3e b110 453c d93f 7b3e 3dba 4e3c
00000080: 0884 f8bc 88ad 863e d91b 7b3d be40 383c
00000090: a354 403e c347 8ebd c173 e6bd e7fe 613e
000000a0: b5d0 10bd 599e b43d ed38 1b3e 7ff7 34bb
000000b0: 2431 113d 8b0e 4e3e 0479 b0bd cb03 393e
000000c0: 1a5a 553e efae babc 6738 5f3e f4d0 323a
000000d0: 792e dd38 0abd a63b e301 b73d ccd9 d83d
000000e0: 2c93 203e 163d 31bd 3d43 21bd a7d7 c73d
000000f0: 7bec f83d 7af0 363e 7b97 8e3e b229 3e3e
00000100: 98ae 8a3c 7903 063d c258 233c de2d 33bd
00000110: 559e 0abd b2a2 823d ba01 e23d ae84 743d
00000120: 6f9f b6bd 5a53 223e 1965 f13d cc66 9bbc
00000130: 9b1e 573e d844 e43d e33d 42bd 410a 3c3e
00000140: 998c 64bd f48c 5abd 18d9 d23d 21f4 5bbd
00000150: c3bf 393d 4ba2 f83c 0ed6 5dbc 396c 02bb
00000160: b25b 78bd 677e 503c 344f 36bd 7580 033e
00000170: ed11 36bb ecda 70bd 89d9 a63d f2f2 a43c
00000180: ea92 413e cd2e 2cbd b284 233e 62d5 3d3e
00000190: dd61 a63d 2ddd 8c3d e668 46bc 6f07 38bd
000001a0: 7f1c c4bd f8eb 373e 15c7 d03d 4a29 e5bc
000001b0: bc4b a83d 1ad5 b43d 93f4 173e 99a1 f63d
000001c0: 48ee 97b9 93e3 62bd 4dac b1bc 2fdf b03b
000001d0: 3618 cebd 5109 32bd 1243 44bd 10ef 52bd
000001e0: 16c1 ea3c 4cd6 333e 845a 8bbc 5686 923d
000001f0: 8b50 e73b 2d50 ce3c a0ce 65bc 6a5a 8bbb
00000200: 45f0 06bd 0fa2 583e 6da3 d2bc 807b 093d
00000210: 63f9 073e ae1c bdbc 64a7 a33c 4b27 5d3e
00000220: ecb0 b23c 6f80 f63d 382e 04bd ad6e 953c
00000230: 8e7c 883c 0d0a 5dbc 0094 c0bc b54d 563d
00000240: 8dea da3d 87d2 623e 7218 17bd aba2 233d
00000250: bb5c d8bc 2c12 84bb 9ffc e73c bbbc bf3c
00000260: 0de6 563d 9412 823c 8805 743e 886d cb3b
00000270: e251 c03d 884d 703c 8a59 e23d 7332 3abd
00000280: 1748 03bd a0fa 233e 30c6 84bd 5aad e53d
00000290: 23b2 193d 5ef1 103e f1c3 d3bb 91c4 a93d
000002a0: 8962 3cbd 99e1 d03b fb52 c9bd 60f4 bd3c
000002b0: 6559 2a3e 9d56 5b3d f572 ef3b 99f2 a1bc
000002c0: 2ef4 ad3d a214 2d3d e850 f7bb 7ba4 74bc
000002d0: 8f04 87bd 73ca e43c 9a3d b53d c683 453e
000002e0: 548a 1b3e 5a54 aebd 6a9c 83bd b767 7a3e
000002f0: f492 e4bb 8ad4 613c 932c 093d 8103 1e3d
00000300: 7dd7 5c3d d1c4 1b3e f054 343e 8e1e 7d3e
00000310: f2f2 1e3d 3d65 df3d c447 89bb a321 dabb
00000320: 664f 1f3d 5d95 a5bc 312a cfbc 162d 40bd
00000330: 08b3 313e 8ddf 75bd cfa0 433e c0b4 5f3d
00000340: 7a86 e33d f430 803c 334d 153d 25e1 b03c
00000350: 27d6 44bd 87d7 263e e26d 9e3d 067c c83d
00000360: 3f7f 813d d294 86bb 2c6a 9cbc 5382 88bd
00000370: 46c4 9e3d 8509 8ebd 938f 11bd 2e53 d33c
00000380: 1c5d 2c3e a4bf 803d 66ee 8fbd 4448 933c
00000390: 91a5 0bbd c2b4 c63c 7f6d c2bd bf36 593d
000003a0: cd1e d4bd 645d 7a3d 6f32 eabd 1754 9fbc
000003b0: 3151 123e 5291 a83d e4c7 143e f46d d23c
000003c0: 87b2 45bb bec1 03bd 51a1 e03d 7a7b ffbc
000003d0: 5668 1ebd b876 8ebd 44fe 4fbc a5b3 3fbd
000003e0: 12aa 6abc 250f 93bc 87aa 3c3e dadd f63b
000003f0: 4a4a 1d3e d423 a5bd 82b9 383c 2d7a c23d
0.0069839293 0.112281546 0.20847195 0.16960792 -0.0062971083 0.19123274 -0.057659425 0.1390226
0.17852493 0.0032650616 0.11371866 0.14582524 0.23994948 0.08778576 0.038904194 -0.00515455
-0.0012918207 -0.02083469 -0.052419912 0.26244608 -0.035808958 0.25548 0.012576438 -0.009713505
0.21844988 -0.00021455006 0.033138506 -0.052185223 0.1824966 0.012027905 0.24536075 0.012617645
-0.030336395 0.2630427 0.061305854 0.0112459045 0.18782286 -0.06947281 -0.11252547 0.22069894
-0.03535529 0.08819265 0.15158434 -0.002761334 0.035447255 0.20122735 -0.08616832 0.18067853
0.20835152 -0.022788493 0.2179886 0.00068212976 0.000105467574 0.005088453 0.08935907 0.105884165
0.15681142 -0.043271147 -0.039370764 0.09757929 0.1215448 0.17865172 0.27849945 0.18570593
0.016928956 0.032718156 0.009969892 -0.043744914 -0.033842403 0.06378688 0.110354856 0.059696846
-0.08917128 0.15852109 0.11786861 -0.018969916 0.21007769 0.111459434 -0.0474223 0.18363287
-0.055798147 -0.05335708 0.102953136 -0.053699616 0.045348894 0.030350825 -0.013539804 -0.0019900932
-0.060634322 0.012725449 -0.044509128 0.12841971 -0.002778168 -0.05880253 0.0814696 0.020135377
0.189037 -0.04203682 0.15968588 0.1853843 0.08124135 0.068781234 -0.012109971 -0.044928964
-0.09575748 0.17961109 0.10194222 -0.02797379 0.0821757 0.088297084 0.14839391 0.12042541
-0.00028978498 -0.055392813 -0.021688605 0.0053976993 -0.100632116 -0.043465916 -0.047915526 -0.05149752
0.028656524 0.17562217 -0.017010935 0.07154529 0.007059162 0.025184715 -0.014026314 -0.0042527216
-0.032943983 0.2115557 -0.025712693 0.033565044 0.13278727 -0.023084965 0.019977279 0.2159702
0.021812879 0.120362155 -0.03227064 0.01824125 0.016660955 -0.013491166 -0.023508072 0.0523202
0.10689268 0.22150622 -0.036888547 0.039950054 -0.026411405 -0.0040304866 0.028318701 0.023405423
0.052465487 0.015878 0.23830235 0.0062081255 0.09390618 0.014666922 0.110522345 -0.04545827
-0.032051172 0.16013575 -0.06483114 0.11214705 0.0375234 0.14154574 -0.006462567 0.08289445
-0.045992408 0.0063745496 -0.098302804 0.023187816 0.16635664 0.053549398 0.007307405 -0.019769
0.08493839 0.042256005 -0.0075474866 -0.014931793 -0.06592666 0.027928567 0.0884964 0.19288549
0.15189487 -0.085121825 -0.06426318 0.24453627 -0.006975526 0.013783583 0.033489775 0.03857756
0.053916443 0.15211798 0.17610526 0.24718687 0.03880591 0.109079815 -0.0041894633 -0.006656842
0.03889408 -0.020212824 -0.025288673 -0.046917997 0.17353451 -0.060027648 0.19104312 0.054615736
0.11109634 0.015648343 0.036450576 0.021591732 -0.048055794 0.16293155 0.07735802 0.097892806
0.063230984 -0.004107096 -0.019093595 -0.06665482 0.0775228 -0.069354095 -0.035537314 0.0257965
0.16832393 0.062865525 -0.07027893 0.017978795 -0.034093443 0.024256114 -0.09493541 0.053030726
-0.10357437 0.06112422 -0.11435401 -0.019449277 0.14288785 0.08230843 0.14529377 0.025687195
-0.0030166225 -0.03216719 0.10968269 -0.031186808 -0.03867372 -0.069562376 -0.012694899 -0.04680218
-0.0143227745 -0.017951557 0.18424426 0.007533771 0.1536037 -0.08063474 0.011274697 0.094959594

critic.4.weight f4 [1, 256]
00000000: 9645 3b3f 7f8a 183f 9046 3c3f 589c 0bc0
00000010: c51b 5abf 31d2 9ebf 8c4d 65be c4a3 a13e
00000020: 231c 41c0 e0b8 f83c 670a f83e f1d9 57c0
00000030: b049 1fc0 3171 7e3f 56b0 993a bea3 37bd
00000040: 607e 17bf aace 9b3d 675c 2e3d f5b0 5bbf
00000050: bcbe 323d 36ca bcbf 3e2e cabe 5fc7 823c
00000060: 28e4 1f3f ad8f fabe 33ff 213c 4143 febe
00000070: 95a0 333f b269 ddbf 42cc 54bf af78 c4bf
00000080: 981f 7fbe 9680 d1bf fa9d 6e3e 82e5 21bf
00000090: fa30 a1bf bcd4 423d fb2d 1bbf 814e 22c0
000000a0: d909 a6be 4dbd 05c0 31e0 b6bf 0a58 553d
000000b0: b428 8d3e d3a0 2e3f eab2 9dbf f295 3bbf
000000c0: 2be2 09c0 a53c 8fbe 4862 4c3f dfa4 8ebf
000000d0: 5aca 253d 2d11 8cbe 0894 68bf c617 4a3f
000000e0: 9050 ad3e 7d2f 40bf b514 b63d 0fd6 bcbf
000000f0: aa2d 7cbf abf7 e9bf 8ac6 9dbf d39a 6dbf
00000100: c11e a73d 165b b13d 4e95 b13c 6350 45bd
00000110: 14c0 e73d f5b2 4a3d 31d7 ea3e 214d 173f
00000120: 09e4 9cbf 2430 fd3e 191a a53e 98fd afbf
00000130: a607 35c0 1afb e83e ece1 ef3c 12a2 2ec0
00000140: 5720 0ac0 0568 61bf fffc 843f 8c7d d93d
00000150: b1aa f0bf f7fb 543e 99a7 16bf 3f23 653d
00000160: 6d90 39bf 6b3e 62bf 35f3 aebf 2b73 243f
00000170: f205 3e3d bea1 113d bc4f 8b3f e58b 06bf
00000180: 9a91 2d3f 3bbe e13d 1a2e e7bf debc eebf
00000190: 4dc1 d33e 610c 7a3f 005b 91be eaad 803d
000001a0: 6ad7 a1bf 141c debf b6c6 22c0 a662 1ebf
000001b0: 03cc 4a3f 1cc4 383e 0f28 9cbf ee63 313f
000001c0: c553 a5be 5f22 fabe 1a2a df3d 3b30 5d3d
000001d0: 508c 1dbf 5cc2 c8bf 9fc8 cc3b c26d 92be
000001e0: 1ccd 193f 644d 09c0 fbfa 3fbf 5421 68bf
000001f0: 1208 c0be 2279 d83c 903a 36bc 6274 c8be
00000200: d931 84be 1611 30c0 5bc4 9e3d 38f1 60bf
00000210: 4120 6d3f 6c99 6d3c 9ee7 aa3d aa13 ecbf
00000220: 410f e83d f768 cd3e b3e2 14bf 6ecb 23bf
00000230: 65ab 513d 5f43 533d 71f6 713d 13d0 673d
00000240: 7e4f bfbf 7fc5 343f 94bf 29bf c3e7 823d
00000250: 6990 efbe b40f 1c3d e295 1b3d 6bd8 fcbf
00000260: 5bab 113f f60d f43c b042 7cbf e6c7 6a3b
00000270: 24ad 843e 3678 753d b1ec c93e ed7a 9e3c
00000280: 37c0 843d 72e5 69bf 368b fa3d d198 0e3f
00000290: 8407 a73d 6371 303f 4f64 573d 0832 8c3e
000002a0: d775 64bf 4bfd 1c3d 7301 12bf 47c4 88be
000002b0: 41c6 df3e dc9b 1ebd aa46 84be 6793 8bbe
000002c0: 646d 02c0 e5e5 043f 37e3 9dbf 91a2 fc3c
000002d0: 3c06 5cbe 6b2a 3a3e 933e 45bf 5c3c f83e
000002e0: 8af9 a4bf 8724 863d 0733 18bf 046f 393f
000002f0: 09e9 2dbf 2678 5bbe 0c12 bf3d 2e10 b1bf
00000300: 154d 213d 2cb1 203f a49f 12bf 2631 6bbf
00000310: e932 ed3d b07c be3e fc9b 7cbf 736e 783d
00000320: 7679 bf3d aab5 44bf 95bb 93be 84a1 423c
00000330: 3e00 23bf d945 2dbf b0b0 2d3f 31e5 053f
00000340: f70e 633e b04b 803d 319c 85be 1fb3 3b3f
00000350: 1ebe efbe 7a4b 993e 317b 1bc0 9e76 a93f
00000360: 321d f7bf b829 e83a 7e23 003d 426e 623c
00000370: bc08 6ebf 89b9 cc3c e4e8 88bc bda1 763d
00000380: 8e71 363f 1848 853f 1603 17bf f08d 913b
00000390: 5d1d 133f 4748 8f3e af2f f7be d49e 1dbc
000003a0: 1919 48bf 37d0 b8bf 878b d7be 973e 0fbf
000003b0: 45ff 4b3f 075a d5bf 5e09 b7bf d5c6 c63d
000003c0: 8eb4 cdbe eb5a 85be 3a18 893f 08f9 e2bf
000003d0: 6b66 573d 62d7 1d3d af62 42bf bd8d d0bd
000003e0: 8efd 17bf b087 2b3f 1086 09c0 678b 2bbf
000003f0: c049 7bbf a6be 89bf 0468 b53d 358d 80bf
0.73153055 0.5958633 0.7354517 -2.1814175 -0.8519862 -1.2407895 -0.22392863 0.31570256
-3.0173423 0.030361593 0.48445436 -3.372677 -2.4888725 0.99391466 0.0011725526 -0.04483389
-0.5917721 0.076077774 0.04256859 -0.8581689 0.04363893 -1.474921 -0.39488405 0.015964208
0.62457514 -0.4893774 0.009887504 -0.49660686 0.70166904 -1.7297881 -0.8312417 -1.534933
-0.24914396 -1.6367366 0.23302451 -0.63240826 -1.2593071 0.04756616 -0.60617036 -2.5360415
-0.32429388 -2.089679 -1.4287168 0.052085914 0.27570117 0.6821415 -1.2320225 -0.73275673
-2.1544292 -0.27975956 0.79837465 -1.1144065 0.04047618 -0.27356854 -0.9085088 0.78942525
0.33850527 -0.7507246 0.08890668 -1.4752825 -0.9850718 -1.8278707 -1.2326214 -0.9281437
0.08160163 0.086599514 0.02167764 -0.048172366 0.11315933 0.049487073 0.45867303 0.59102064
-1.2257091 0.4945079 0.32246473 -1.3749266 -2.8285918 0.45504075 0.029282533 -2.728642
-2.1582239 -0.88049346 1.0389708 0.10619649 -1.8802091 0.20799242 -0.58849484 0.055941816
-0.72486 -0.8837649 -1.3667971 0.6423823 0.04639239 0.03555464 1.0883708 -0.5255721
0.67800295 0.11022612 -1.8060944 -1.8651388 0.41358414 0.9767514 -0.2838974 0.062831715
-1.2643864 -1.7352319 -2.5433784 -0.61869276 0.7921755 0.1804356 -1.2199725 0.69293106
-0.32290474 -0.48854348 0.10896702 0.054001074 -0.61542225 -1.5684314 0.006249502 -0.28599364
0.600786 -2.1453485 -0.7499234 -0.90675855 -0.37506157 0.026424948 -0.011122361 -0.39151293
-0.2581928 -2.7510428 0.077522956 -0.8786807 0.9262734 0.014501911 0.08344959 -1.8443501
0.113310345 0.40119144 -0.58158416 -0.63982284 0.051188845 0.051577922 0.059072915 0.05659492
-1.4946134 0.70613855 -0.6630795 0.06391861 -0.46789864 0.038100913 0.037984736 -1.9753546
0.5690209 0.029791813 -0.9853926 0.0035824715 0.25913346 0.059929095 0.39438394 0.019345725
0.064819746 -0.9136573 0.12233584 0.5570193 0.0815573 0.68923014 0.052585896 0.2738192
-0.8924231 0.038327496 -0.5703346 -0.26712248 0.43705943 -0.038722858 -0.25835162 -0.27260897
-2.0379267 0.5191329 -1.2334965 0.030839236 -0.21486753 0.18180244 -0.77048606 0.4848355
-1.2888653 0.06549936 -0.5945286 0.7243502 -0.6793371 -0.21432552 0.09329614 -1.3833063
0.03938015 0.6277034 -0.5727484 -0.9187187 0.11581976 0.37204504 -0.98675513 0.060652208
0.09349339 -0.768397 -0.2885405 0.011879329 -0.63672245 -0.67684704 0.6784773 0.52302843
0.22173677 0.06264436 -0.26095727 0.7332019 -0.46824735 0.29940397 -2.429394 1.3239324
-1.9305785 0.0017712628 0.031283848 0.013820233 -0.9298208 0.024990814 -0.016712613 0.06021284
0.7126702 1.0412626 -0.58989084 0.004441969 0.5746668 0.2798483 -0.48278567 -0.009620387
-0.78163296 -1.4438542 -0.42098638 -0.5595488 0.79686385 -1.6668099 -1.4299734 0.09705893
-0.40176815 -0.26045927 1.0710518 -1.7732248 0.052587908 0.038535483 -0.7593183 -0.101832844
-0.5937127 0.6700392 -2.1488075 -0.67009586 -0.9815941 -1.0761306 0.0885773 -1.0043093

actor.0.weight f4 [256, 8]
00000000: 77a3 533e 396b 5c3e 5c76 463e cf99 a93e
00000010: 334a f4be 3961 29bf 7303 233e fcdf 273e
00000020: 5e91 f0bd 0e86 85be 6cbc 25be 0643 1cbe
00000030: c3c2 483f a9d5 2e3f a4e6 373d 4160 c5bd
00000040: 1e88 3c3e 75a3 a63d 08e7 d73e e30c b43d
00000050: 88e2 15bf 132b d1be 6251 983e 08f9 91be
00000060: 8222 003f e40f d0be a428 303d 751f 7ebe
00000070: c347 32bf 232b 0a3d d699 d4be 5276 9cbd
00000080: 833e 943e 0ae2 2fbe 7f0b 383e ec65 46be
00000090: 0b15 6dbe 82a2 4e3e 9efc f9bc 8fb2 49be
000000a0: 2431 a03e c2a8 bcbe e6db 893e 6a0c 07bf
000000b0: 114f dd3e a63f cd3e c519 ce3e 6e36 72be
000000c0: c79a 383d 902f d0be 603d a53d abc5 ccbe
000000d0: 5157 70be 2189 11bf 311c 2f3d f578 5c3d
000000e0: 928d a4bd 7c2a 5dbe 199c 06be 6e7e 10bd
000000f0: 8d0e 31bf a606 d6be 3c98 24be e3ae 0abf
00000100: cd2d 243e 07a1 01be 8314 813e f0c7 2fbe
00000110: 94b4 a53e 43c3 8a3e 67f9 18be 8414 4e3c
00000120: 73b2 07bf 9442 5b3e 665c 84be aaaa 513e
00000130: 9f6b fc3e 1904 f73e 7ed6 0cbe 40eb dc3d
00000140: 1ad1 a8bd 989b a7bd 21fc 9a3e 2fb5 a6be
00000150: 72c8 adbe 385b 623d e61a 88be 7617 a2be
00000160: 7c91 a8bd dd06 85be 1b5d 79be b1cf 2d3e
00000170: ab0a f53e 4f2f b0be 6b15 503d a812 6d3e
00000180: 3480 bebd 61e3 a73d df1d 88be fa3a 853e
00000190: 7f0f 753f a204 ef3e 6941 34be e2fd 7d3d
000001a0: be4b 80be 5efb e13d fb89 ee3e 2da5 013f
000001b0: 828c 9e3d 8a39 19be f7a4 38bd 1d2e a93d
000001c0: 5e16 3dbe ab0c 83be fb02 833e 296a 973e
000001d0: 23b3 44bd b896 94be 0f2c 8ebe 7204 a3be
000001e0: 3649 30be 7980 94bd 0d9a 383f 4d63 2e3e
000001f0: 5644 e0be 3707 c2be 03cd c83d a49b 1b3e
00000200: d33b 833e 5fbc 97bc 2f3e 2ebe eb67 06be
00000210: 3070 143f 618f 323f bc7d 863e fdd8 c7bd
00000220: 4333 67be 5ccd c23d 90d0 b93d dbc3 06be
00000230: 1e5a 05bf 4c4c dabe ddd1 ab3e ed7c 7abe
00000240: 0142 cf3e 12cc 89bc 48da e93e 10df d8be
00000250: 89bb 64bf 4722 0fbf dba4 203e 8689 92bd
00000260: 1c95 43be db99 633e b90a a3be 40ad 993c
00000270: a0bc 6b3e a75f 1d3f 9816 9bbe 576e 69be
00000280: ffe0 8c3e fd51 633d ce25 eebe 8c37 203f
00000290: 3cb4 3b3f 4858 043e 9206 123e 5236 073d
000002a0: 57fb 003f 5a47 f93d b35c c23e 913d c73c
000002b0: bfe0 073f 704d f9be 2832 6cbe e875 d13d
000002c0: 3eed a5be b9bb 3a3e 906d c2be d58d 003f
000002d0: 7458 423f 3b4c 953b 8d26 4a3b 183e e1bb
000002e0: feb0 223e 507e a93e 3cf0 7bbe d455 c73c
000002f0: b2f7 3b3e 98d5 163f 6346 e13d 3bf5 863e
00000300: b39d 12bf 87ff 5bbe 1d91 30bd 5c4c 42be
00000310: 2a64 ecbe 03ee b83d fcd1 973a f2db ad3d
00000320: 5e8c 6cbe a694 8a3d 30f4 90be 4f3f b73e
00000330: b429 c63e ed1e d73e d4de e9bd 60ec 023e
00000340: 9993 dd3d 4f94 07bf 7b09 bf3e 9549 113f
00000350: d619 03be 4055 fbbd 12e6 aebe b62d 43be
00000360: 600c 063e 5c82 43be f251 f7be 0aa5 60bc
00000370: b22f 553b 19b8 69be cbf3 243c bb3e ad3e
00000380: 538d e4bd 1c09 2dbe 5076 47be bdea fdbe
00000390: 0d3b 18bf dabd ad3e 055f 28bb 5e3b 723e
000003a0: b67c 32be b06b 4f3e 9b80 1fbe 3e5f b53e
000003b0: 725c 0e3f f5e5 af3e 2859 eabe 92c6 0cbd
000003c0: 9a20 9d3d 70e2 ffbb e023 ae3e 3a63 da3e
000003d0: 4faa a5be 8e70 d7be fde2 a8be d29e 07be
000003e0: 11cf c8be bdef c53d cdbd cdbe e71e 9bbd
000003f0: 2f78 95bd df70 5dbc 3980 443c 1c66 6ebe
0.20667826 0.21525277 0.19381088 0.3312516 -0.4771286 -0.66163975 0.15919285 0.16394037
-0.117464766 -0.26078838 -0.16185158 -0.15259942 0.7842218 0.6829477 0.04489769 -0.096374996
0.184113 0.08136646 0.4216845 0.087915204 -0.58548784 -0.40853176 0.2974959 -0.28510308
0.50052655 -0.40637124 0.043007508 -0.24816687 -0.6964075 0.033732545 -0.41523618 -0.07639755
0.28953943 -0.17176071 0.17973135 -0.19374818 -0.23152559 0.2017918 -0.030515965 -0.19697021
0.3128749 -0.36847502 0.26925582 -0.5275332 0.43224385 0.40087622 0.40254036 -0.23653576
0.045069482 -0.40661287 0.08068347 -0.3999456 -0.23470809 -0.5684987 0.042751495 0.05382629
-0.08034815 -0.21598238 -0.13145484 -0.035276823 -0.6916283 -0.41801947 -0.16073698 -0.54173106
0.16033097 -0.12659083 0.25210962 -0.17166114 0.32364333 0.27102098 -0.1493889 0.0125781335
-0.53006667 0.21412116 -0.25851744 0.2047526 0.49300858 0.48245314 -0.13753697 0.10787058
-0.08243008 -0.08183974 0.30270484 -0.32560107 -0.3394199 0.055262774 -0.26583022 -0.31658524
-0.08230874 -0.259818 -0.24351923 0.16973759 0.47859702 -0.34411094 0.050801676 0.23151648
-0.093017966 0.08197666 -0.2658529 0.26021558 0.9572677 0.46683222 -0.17603077 0.0620097
-0.25057787 0.110342726 0.46589646 0.50642663 0.077416435 -0.14963356 -0.045079198 0.082607485
-0.18465564 -0.25595602 0.2558821 0.2957318 -0.0480224 -0.2902124 -0.2776799 -0.3183933
-0.17215428 -0.07251067 0.7211006 0.17030068 -0.43802136 -0.3789613 0.09804728 0.15196091
0.2563158 -0.01852244 -0.17015909 -0.13125579 0.57983685 0.6975003 0.26267803 -0.09758184
-0.22578149 0.095118254 0.09072983 -0.1316065 -0.5209063 -0.42636335 0.3355855 -0.24461718
0.40480044 -0.016820941 0.45674348 -0.42357683 -0.89348656 -0.5591168 0.15687887 -0.07155137
-0.1909985 0.2222666 -0.31844118 0.01875937 0.23021173 0.6147408 -0.30290675 -0.22795998
0.27515408 0.055498112 -0.46513218 0.6258476 0.7332189 0.12924302 0.14260319 0.03301079
0.50383514 0.12171812 0.3796135 0.02432135 0.5307731 -0.48691893 -0.23066008 0.10227567
-0.32407564 0.18235673 -0.37974215 0.5021642 0.7591622 0.0045562065 0.0030845732 -0.006873857
0.1588783 0.3310418 -0.24603361 0.024332918 0.18356207 0.5891967 0.10999753 0.2635897
-0.5727188 -0.21484195 -0.04310714 -0.18974441 -0.4617017 0.09029772 0.0011582966 0.08489217
-0.23100421 0.06766634 -0.283113 0.35790488 0.38703692 0.42015782 -0.11419454 0.12785482
0.10819168 -0.52960676 0.3731192 0.567529 -0.12802824 -0.122721195 -0.34159905 -0.19060406
0.13090658 -0.19092697 -0.48304707 -0.013711223 0.003252965 -0.22824134 0.01006789 0.33836922
-0.11159768 -0.16898006 -0.19478726 -0.49593154 -0.59465104 0.33933908 -0.0025691402 0.2365546
-0.17430386 0.20255923 -0.15576403 0.35424227 0.5560981 0.3435513 -0.45771146 -0.03436906
0.07672234 -0.007808976 0.34011745 0.4265383 -0.32356498 -0.4207806 -0.32985678 -0.13244179
-0.3922048 0.09664867 -0.4018387 -0.075742535 -0.07298314 -0.01351568 0.011993461 -0.23281139

actor.0.bias f4 [256]
00000000: 85c0 623d d6de f43d 31c4 3f3d 8a13 3f3e
00000010: b39a f9bd f3a4 01be ab12 3dbd 3cf7 263e
00000020: 405a 033d 4363 e83d 5dda 98be 04f0 45be
00000030: ca04 5c3e 49eb 62be 9c64 97bd e6fe 05be
00000040: bbd1 03be 65b2 d4bc b267 8c3c 9df5 c6bd
00000050: fa9e d9bd 5841 10be 81e8 2e3e 6d93 a5be
00000060: 2186 0a3d 1c3d e23d 89ff 983e 1c79 87be
00000070: a169 13be ea77 3d3e 8ea2 d53c 5c30 babd
00000080: 5b1d d63d 4d1c 893d 7420 0c3e d1b3 de3d
00000090: e3cf 08be 355b a3be eda9 a13d 2b48 053c
000000a0: 9d90 49be 9cae c9bb 45bf 3e3d e5b9 673e
000000b0: b64b c0bb 2692 8e3c 9280 d53d 770f 3b3e
000000c0: 6f10 053e a6ee 833d 32fa 583e 99bc 9abc
000000d0: d20b f9bd 34ad 283e a4c9 9a3d c7ba 5bbd
000000e0: abb0 1cbc b378 5fbe 0c83 65bd dc42 693e
000000f0: a51b 80bd 8a5e 0ebe a8f3 46be e4a1 4ebc
00000100: 7efd b6bd d345 0c3e 5887 813e 5958 30bd
00000110: 7de1 92be 810c a1bd 48e4 ccbe 0088 a53d
00000120: 1f29 63be cc9c 013c c295 273d baab 2ebe
00000130: 182f 483a 7b40 5e3e b4c5 853b 1863 e73d
00000140: ce9a 1dbd 6a5b f03d 3aee 1d3e a7e0 9cbe
00000150: 21fd 823b 95c6 f7bd 8408 8a3b 8cbd b93d
00000160: 606f 123c 90f8 da3d 8dc4 2abe f707 173e
00000170: f84e 313e 8d8d 293e 6f83 cb3d 9fee 68be
00000180: 47f1 de3b 644d 0ebe 97f3 a33d 93e7 723e
00000190: bb86 8a3e 0a7e 9a3d aba7 873e 3a9e 25be
000001a0: 4b18 ec3d 6102 35be 57c6 86be 4e01 ed3c
000001b0: 423f 153e cd44 ab3c 52cc 543e 8066 a7be
000001c0: 4153 a7be e479 02be fc23 063d 85ae 5a3e
000001d0: e9a3 963c 521d 0c3e eca7 00be bdde 2abe
000001e0: 1403 f73d 6aac 4fbe a4a6 97be 68d6 9fbe
000001f0: 68fc 753e 185f edbd 273f 17be 9b3c 0fbd
00000200: ae79 06be 8b6a 3f3e ef83 793d e4c8 66be
00000210: 7dd7 0dbe 51a3 eebd 6e65 abbe 751a b53d
00000220: 28b5 423e f9fa 35bd 9bbf e1bd a805 e6bd
00000230: 00f2 1f3d 3177 d3be cb79 9a3d f122 dd3d
00000240: e8b4 6abe c939 483e c45a 49bb 2d14 093d
00000250: 2d0d 893e b816 6fbe ebee 233d 5ca1 bcbd
00000260: a273 febd ccdc 94bd 8648 833e 0479 79be
00000270: 01ef 8abe 62c2 fd3d d9eb a43c 3d33 833e
00000280: 5291 fb3d c43e 88be e1f1 9dbd 9be9 e5be
00000290: 3547 b6be 0f2e 5b3e 66fe a9be d0bc 343e
000002a0: 6e4d 8c3d 1365 62be 4706 903c d08e 853e
000002b0: dbb4 8fbe 9235 3dbe 6319 a7be 61a8 adbd
000002c0: 8ba6 60be df14 313d ea6f 98bb 1eed 22be
000002d0: 17c0 183e f0cf 4fbe 9cf7 853d c3e0 043e
000002e0: 08bf 8a3d 11dc 423d be8d 103e 7f2b 25be
000002f0: 7c27 7bbd bee9 ba3c 8781 143e a844 db3b
00000300: f216 833e 8f76 323d 9e78 f5bc f35b fbbb
00000310: e248 6dbd 601d ebbc d1b3 493d 8ad0 da3c
00000320: 2a17 86be e6ca a33d f70c 993d 19ca 08be
00000330: b5d8 31be 2530 373e 0cc1 84be 5579 8c3e
00000340: aa19 1cbe 024a ce3c 3b58 30be 6948 2f3e
00000350: 5703 493d 88a2 f43d 9f3e 183e ad74 6abe
00000360: a966 a0bd 0fad f9bd 39a6 fe3d 5985 9ebc
00000370: 4fe7 8b3d c11f 27bc ad34 c33d 15d8 36be
00000380: 2a5e 23be d462 a3be 76e6 0c3e cb8c 283c
00000390: 11b8 483d 2bb0 633e 7d91 24be bd59 0abe
000003a0: fe13 193e 4978 843e 7e70 45be 7580 4a3d
000003b0: 4148 443d 7a45 e3bd dc2c 26bc 6073 05be
000003c0: 2cd1 a73c eab5 1bbe 3ce9 9d3d 8e35 bebd
000003d0: 2673 f03d 7982 843e cd61 b9bc 1346 313d
000003e0: 3d71 92be 494c 873d e09a 073e 9790 183e
000003f0: 06e8 93be 241d 2abb ab9b 94be 001b 72bc
0.055359382 0.11956565 0.046817962 0.18659797 -0.1218771 -0.1266058 -0.04616038 0.1630525
0.03206849 0.11347058 -0.29854098 -0.1932984 0.21486202 -0.22160067 -0.073922366 -0.13085517
-0.12872975 -0.025963971 0.01713929 -0.09714816 -0.106260255 -0.14087427 0.1708088 -0.3233904
0.03381932 0.11046812 0.29882458 -0.26459587 -0.14395763 0.18502775 0.026078489 -0.09091255
0.10454818 0.06694851 0.13684255 0.10874141 -0.13360552 -0.31905523 0.07893739 0.008134882
-0.19684072 -0.0061548483 0.046569128 0.22629507 -0.0058684004 0.017403673 0.104249135 0.18267618
0.1299455 0.06442003 0.21189192 -0.018888758 -0.12160458 0.16472322 0.07557991 -0.05364492
-0.009563605 -0.21823387 -0.05603318 0.22779411 -0.06255273 -0.13903251 -0.19428885 -0.01261184
-0.089350685 0.13698511 0.25298572 -0.043053005 -0.2868766 -0.07863713 -0.40017915 0.080825806
-0.22183655 0.007910918 0.040914305 -0.17057696 0.0007636412 0.21704285 0.004082406 0.112981975
-0.03847771 0.11736186 0.15422907 -0.30640146 0.0039974605 -0.120984234 0.004212441 0.09069356
0.008937687 0.10691941 -0.1667654 0.14749132 0.1731528 0.16557904 0.09937178 -0.22747277
0.006803665 -0.1389671 0.080054455 0.23721151 0.27055916 0.07543571 0.26495108 -0.1617364
0.11528071 -0.17676689 -0.26323196 0.028931286 0.14574912 0.02090683 0.20781067 -0.3269539
-0.32680705 -0.1274181 0.03274916 0.21355636 0.018388705 0.1368306 -0.12564057 -0.1668653
0.12061134 -0.20280614 -0.29619324 -0.31218266 0.24022067 -0.11590403 -0.14770184 -0.034969907
-0.13132355 0.18692987 0.060916837 -0.22537571 -0.13851734 -0.11652244 -0.33475822 0.08842937
0.19014418 -0.0444288 -0.11022874 -0.112315476 0.03904915 -0.41301873 0.075427614 0.1079768
-0.22920573 0.19553293 -0.0030724267 0.033466507 0.26767865 -0.2334851 0.04002277 -0.09210464
-0.12424399 -0.07268676 0.25641268 -0.2436257 -0.2713547 0.12390591 0.020131992 0.2562503
0.12283577 -0.26610386 -0.0771215 -0.4490479 -0.35601202 0.21404289 -0.33201903 0.17650151
0.06850706 -0.22108869 0.017581118 0.2608552 -0.2806767 -0.18477467 -0.32636556 -0.08479381
-0.21938531 0.043232795 -0.004652013 -0.15910766 0.14917026 -0.20294166 0.06541368 0.12976365
0.067747176 0.047573153 0.1411657 -0.16129874 -0.061316952 0.022816535 0.14502536 0.006691534
0.25603443 0.043570098 -0.029964741 -0.0076708733 -0.057930835 -0.02870053 0.049243752 0.026710767
-0.26189548 0.07997684 0.07473176 -0.13358344 -0.17367823 0.1788946 -0.25928533 0.2743632
-0.15244165 0.025181774 -0.17221157 0.17117466 0.04907545 0.11945063 0.14867638 -0.22896071
-0.07832081 -0.121912114 0.12434048 -0.019350694 0.06831228 -0.010200442 0.095315315 -0.17855866
-0.1595389 -0.31911337 0.13759789 0.010287474 0.049003664 0.22235171 -0.16071124 -0.13510795
0.14949033 0.2587302 -0.19281194 0.049438912 0.04792047 -0.11097236 -0.010142531 -0.13032293
0.020485483 -0.15206113 0.077105016 -0.092875585 0.11740713 0.25880793 -0.022629643 0.04327972
-0.2860202 0.06606347 0.13242674 0.14898907 -0.28887957 -0.002595731 -0.29025015 -0.014776945

actor.2.weight f4 [256, 256]
00000000: 60e0 583d 3654 b3bd 0c45 553d ece7 51be
00000010: 4ed9 0abe a62b 4dbd e63f 153e 4f43 9fbc
00000020: b91a e4bd e638 973d 6d14 23be 54c8 563e
00000030: 0b6f a2bd 4050 983d b943 30be b397 223d
00000040: a668 b23c ead3 0a3d e7fb ccbc ff55 9cbc
00000050: 5b99 e3bc 29de 05bd 7dde 753d 138b b6bd
00000060: 9b46 673e c685 0d3e 530e 21be 506c 4d3e
00000070: 7bd5 a43d 5003 b3bd f285 eb3a 0748 883d
00000080: 20e6 833d 7f7d 41be 2bcd 6cbe ce2c 6b3c
00000090: ba85 813d 2c84 553e 8e6d 1d3e 9620 34be
000000a0: 7bea 11be 59e8 20bb f855 053e a317 eabc
000000b0: c72e fd3d cca2 a33d b24c ab3d 70c4 ddbd
000000c0: cded f4bc de45 8a3d aa29 17bc 9378 033d
000000d0: 1cda 9bbd e967 663d 3974 c4bd 1b4c 473e
000000e0: b0f2 4e3e b343 b63d 4ba8 d73d 10e8 6dbd
000000f0: af26 c8bc f4ae ecbb 2abe 53bd 7d20 bf3d
00000100: 8d7f 523d ab72 d03d c94c 2d3d 890b 993d
00000110: 20c0 9c3d 0ea1 7d3e 4828 85bb d959 983c
00000120: 7c3d 26bd 6af5 003e 9543 e1bd c6fd 153e
00000130: 0e10 123c 4b53 a93d 4294 2f3d 84ca 1e3e
00000140: c521 543e b631 753e 3b22 143d f3a8 ecbb
00000150: 193e d7bb bc93 33bd 9c14 b5bd 0d79 0e3e
00000160: f953 283d a799 763d ac66 203e 0ddd e43c
00000170: 0549 c03a 227c 36bd 5e1d d83d 220d ed3d
00000180: 3a73 f9bc 9ad7 0b3c dac8 88bb 1e95 6bbc
00000190: 7822 ce3d 07ef 0f3e 5347 ff3c becb 20be
000001a0: eac2 fcbd 0ff5 0a3c 839b 1d3d f670 0b3e
000001b0: 0ee5 b33d eac7 b23d dac4 c63d 62be 8d3d
000001c0: cd8c ed3c c7e1 d1bd fb09 b0bd ad42 d63d
000001d0: 1299 c9bc 4975 88be e7c5 9dbd 064d 2a3e
000001e0: cd76 463d 41b1 c93c 08e0 08be 828c 503d
000001f0: 43e2 d3bc 42cd a93d 9d57 d83d 397b 243e
00000200: 14fd ce3d 05d4 893c 8307 203e ae73 58bd
00000210: 7712 fb3c ab7c 51bd 5a5f 0b3d e464 813d
00000220: e0e3 383d 6b89 603d ea4c 13bd 9ef4 fc3d
00000230: afcd 81bb acbc 2a3e 14c6 54be 19cc 3ebd
00000240: a032 ee3d 7c5e 193d 73b8 393d 7b76 86bd
00000250: 8692 9b3d ad3d a1bd 68b1 3d3d c5af 7fbb
00000260: 522d 65bd f1cc 7fbc 2851 f53d 14bb ec3d
00000270: bcc7 033d 5ae3 4c3e 1fcb 7c3b 7328 13bd
00000280: 0a7b 013e 8a6a 98bd d997 6a3e 3e4e cd3d
00000290: 917b b3bd 33e9 33bd e662 1d3e 68d3 65bd
000002a0: 91d5 8dbd 4458 f83d 8c44 ef3d a458 bdbb
000002b0: 36da 353d bd60 583d dce1 e2bd e9e8 093e
000002c0: 9c6f e7bd e9a8 85bd b22c 49be d8d0 2fbe
000002d0: d1b3 9f3d e2b0 703e 7feb 3c3d 9fdd aabd
000002e0: d433 3abe b5e9 65bc 3328 e83d 10cb de3d
000002f0: d771 e13d d446 5cbd 594d 63be 2e9f d83d
00000300: 0805 7cbc 39c0 dcbd 2525 a5bd b289 0c3c
00000310: 7777 8a3d bb5a 943e f5d3 553d 5cdb e0bd
00000320: 157e b33b 9212 d0bc 34f3 ad3d c817 a0bc
00000330: 3fc2 6b3e 67e7 493d 6bf3 55bd 47cb bc3c
00000340: 58ea c8bb a452 383d ea54 31be 54d1 07be
00000350: 5f7b 9e3d ef5e 07be 8e36 663e 9603 583d
00000360: 601f 7c3d bd57 debd 800d 43bd ca4b 00bd
00000370: 9bda fe3d 2775 1fbe 111e 6d3c a178 253e
00000380: ac23 603d cfb6 a9bc 833d 35bd 4b08 a63d
00000390: adf5 b23d c2e7 8fbb ec61 7e3e 3861 eebd
000003a0: 695c 71bc 09cf d33d a9d3 443d 21db 9c3d
000003b0: 67ed d63c 6e84 ba3c 873e 343d ebc3 413e
000003c0: b66f 37bd c869 893d 6140 e43d 0f59 b83d
000003d0: 6406 393d 1214 acbd 76ae 333d cbd8 4ebd
000003e0: 2dcd b13d 50dd c93d 94ba f73d 278c 063d
000003f0: d273 21be d63a 54bd 27cf ca3d 6194 073e
0.052948356 -0.08756296 0.0520678 -0.20498627 -0.13559458 -0.050090455 0.14575157 -0.019441275
-0.111379094 0.073838994 -0.1592576 0.20974857 -0.07931336 0.074371815 -0.17213334 0.039695453
0.021778416 0.033893503 -0.02502246 -0.019083975 -0.027783087 -0.03268257 0.060026634 -0.08913245
0.22585528 0.13820562 -0.1572812 0.20060849 0.08048531 -0.08740866 0.0017968996 0.06654363
0.06440377 -0.18895529 -0.2312514 0.014353944 0.063243344 0.20851201 0.15373823 -0.17590556
-0.14249603 -0.0024552552 0.13021076 -0.028575724 0.12362438 0.079900354 0.08364238 -0.10828483
-0.029898548 0.06751607 -0.009226242 0.03209741 -0.076099604 0.05625144 -0.0959248 0.19462626
0.20209765 0.08899631 0.10530146 -0.05808264 -0.024432508 -0.0072230045 -0.051695026 0.093323685
0.051391173 0.10178121 0.042309556 0.07472903 0.076538324 0.24768469 -0.00406364 0.01859753
-0.04058598 0.12593618 -0.109992184 0.14647588 0.008914961 0.0826784 0.042866 0.15506941
0.20716007 0.23944744 0.036165457 -0.0072222888 -0.006568682 -0.043842062 -0.088418216 0.13913365
0.041095708 0.060205128 0.15664166 0.027937436 0.0014670199 -0.044551976 0.10552476 0.115747705
-0.030450452 0.00853529 -0.004174334 -0.014378814 0.10065168 0.14056025 0.03116194 -0.15702721
-0.123418644 0.008481278 0.038478386 0.1361731 0.08783923 0.08729537 0.09705515 0.06921078
0.028997803 -0.10248142 -0.085956536 0.10461936 -0.024609122 -0.2665198 -0.077037625 0.16630945
0.04845314 0.024620654 -0.13366711 0.05091525 -0.025864726 0.08291103 0.10563586 0.1606263
0.101068646 0.016824732 0.15627865 -0.052844696 0.030648453 -0.051144283 0.03402648 0.063180715
0.045139194 0.054818552 -0.035962023 0.123513445 -0.003961287 0.16673535 -0.20778686 -0.04658136
0.1163075 0.037443623 0.04534192 -0.06565567 0.075963065 -0.07873092 0.046311766 -0.003901468
-0.055951424 -0.015612827 0.1197837 0.1155912 0.032172903 0.20008603 0.0038573218 -0.035927247
0.12644592 -0.07442196 0.22909488 0.10024689 -0.08763803 -0.043923568 0.15369758 -0.056109816
-0.069255 0.1212621 0.11682996 -0.005778389 0.044397555 0.05282663 -0.110782355 0.13467754
-0.11300585 -0.06526358 -0.19645956 -0.17169511 0.07797969 0.23504975 0.046123024 -0.08343052
-0.18183833 -0.014032771 0.113357924 0.10878575 0.11008041 -0.053778484 -0.22197475 0.10577236
-0.015382059 -0.10778851 -0.080637254 0.008577751 0.06761067 0.28975472 0.05220409 -0.109793395
0.0054776766 -0.02539948 0.08493653 -0.01954259 0.23023318 0.049292948 -0.052234095 0.023046149
-0.0061314516 0.045000687 -0.17317548 -0.13263446 0.07738375 -0.13219808 0.22481748 0.052737795
0.06155336 -0.108565785 -0.047620296 -0.031322278 0.124440394 -0.15572034 0.0144725 0.16159298
0.05472152 -0.020717053 -0.044248115 0.081070505 0.08738265 -0.0043916414 0.24842042 -0.11639637
-0.014731505 0.10342223 0.048053417 0.07658983 0.02623625 0.022768226 0.044004943 0.18922393
-0.04478427 0.06709629 0.11145092 0.090013616 0.04517211 -0.084022656 0.04386755 -0.05049972
0.08681712 0.09856665 0.12096134 0.032848503 -0.15766838 -0.051813923 0.099027924 0.13240196
