models/ppo/model.pt (torch_old, 551766 bytes, 11 tensors)

critic.0.weight f4 [256, 8]
00000000: 947e 96be 5396 263e c79e a03d bbf1 273e
00000010: dae7 fb3e 2493 a2bd cd3a 8d3e b20f 863e
00000020: 408f abbf 0f9a 843e e131 49be bbf2 99be
00000030: 7214 433f f4b4 4ebe b697 483e ad0f 48be
00000040: f439 2cbd ef9c 913f 6f0e efbe 876a 053f
00000050: 0c45 81bd c40e 4abf 5669 713d 6a85 333e
00000060: a9f2 c73e 89fd 6fbf 1649 2fbe fc91 0cbe
00000070: 4298 9a3f c0f2 dcba e9ea 60bd a641 04bf
00000080: b26e a5be f322 1c3d e88c 313d c266 bc3e
00000090: 746e 7ebe 55c0 da3e d95f 39bd 9da8 00bf
000000a0: 7b48 5fbf 968d 953d 5f56 173f 4b3e e23d
000000b0: c8af d3bd f6f9 413d 70ff bd3e 01d4 933e
000000c0: 1d39 113e e16c 5bbe 1f27 8dbe 17b1 34bf
000000d0: 604f d5be b310 043f 9f63 d83c ff97 6bbe
000000e0: e24c e03e 20bd b43e 0f63 73be 1470 e3be
000000f0: 8b79 24bf 1aa4 47be b0a9 b93b ee9d d8bc
00000100: 4d1a e3be 6171 23be 9f98 053e 8ff8 49be
00000110: baa5 12bf bd4a 60bf fa57 a93e c4ac 50be
00000120: e998 383f b67b 42bd 1491 92be e6df d23d
00000130: 5cde b03e 2a32 0e3e 09f6 90be ee94 1d3d
00000140: 050a ba3b a890 aabf 7f1c 94be f2b9 2bbf
00000150: 5b89 98bc 9bee b8be 92b5 5cbe 9672 943e
00000160: 6851 dbbe a945 a83d 6f49 673d 6dbc 4a3d
00000170: 7ed1 c33e 5041 873e 9301 89be 5fdc aa3d
00000180: c821 6b3f 8fc7 80be 05bc 8bbd 8288 c93d
00000190: e6ce 2e3f 138e 50be ea81 dbbe fc98 be3e
000001a0: ad8f a4bd b72e 43be 5ad8 d33d 0362 04bd
000001b0: e2de 26bd 4e72 443f e0f1 bebe a083 3c3e
000001c0: 29c4 6f3f 4efc dc3d 9b37 81be f775 823d
000001d0: e8a3 6fbf 70f7 24be 493b 3b3e fcc7 2cbe
000001e0: 3ac3 c2be d0db 4dbe d3c1 ef3e 9411 cf3e
000001f0: 0c52 843f 8205 a53c 6ecf bc3e 0b17 8e3e
00000200: 0fc9 8a3f 036d 433d 2e7a c03f ab05 b6be
00000210: 6bcf 66be e949 9ebe 2665 3fbe 9bbf 52bd
00000220: 8474 23be 93b8 22c0 ee25 aebd 8e6e 953e
00000230: 94b8 2c3e 3842 ea3e e029 89be ba94 b53e
00000240: fd5e 8fbe 9add a4bd b2b0 08be e29e d0bd
00000250: 4d8e e2be 1994 cebd 56b6 81bd 4529 85be
00000260: 442f 1e3f 3d47 07c0 14c2 05be 2c55 eeb8
00000270: 47b0 6fbb e9c8 9fbd 96f7 333e 88af 103e
00000280: b3fa 703f 8564 d93d aa78 10be 72a3 ce3e
00000290: b662 03bf 688d 223b 0960 713d 545f 903d
000002a0: 819f e13e 3022 1ebe f52b 033f 73d4 63be
000002b0: 1a3f 42be b992 b7be df3f 7ebd 7847 17bf
000002c0: a10d 8b3f 9257 17be b1f9 9abe 4ded babe
000002d0: ed53 05bf 2d90 dabd f2b5 fcbb 2b50 e3bb
000002e0: 9f7a c63e 0b1c 8abd 216c ee3d 3935 0dbf
000002f0: a6f9 03be 48e0 f2bd ef7e af3e a2b8 e2bc
00000300: ea00 193f 4bd0 ffbf 1a9c 14be ae23 bd3e
00000310: 40e6 983d e28f a63e ac3f 413e 7416 5a3e
00000320: d65f 5a3f 59f5 5dbd 79b4 cb3c 534b dfbe
00000330: 722f d4be d2c6 903d 76b4 cfbd bb4d 84bd
00000340: 5b16 973e 5351 88be 979e 0b3f a34e 9dbe
00000350: 29d3 f3be 93ed e2bc 3dd5 993e bee0 8fbe
00000360: 3eab 063d e423 1fbf fc02 a33e 9775 58bf
00000370: 7d56 07bb 5419 02be 11d5 9fbe 3f55 5cbe
00000380: c726 94bf bd90 a8be 2e7e 963e 617c e33d
00000390: 526a 623f 595c a8be cef5 8c3d 7f9e a13c
000003a0: 2d20 76be 782e db3e 932f e5be 3780 f93e
000003b0: 6ba1 343f 96b4 1e3f c174 bebe 433b fcbd
000003c0: 6ec1 273f c95a 123e 0fcf 913e 7d1b c0be
000003d0: 9cbd 973c 2c26 bd3e 8898 203e e2c4 0fbe
000003e0: 57fe 973e d9d4 f13e 7f44 803e 8954 803e
000003f0: a07d 903e 37ee a03e 6133 4dbc 227a 0f3e
-0.29393446 0.16268282 0.078427844 0.16400807 0.49200326 -0.07938221 0.27583924 0.2618385
-1.3403091 0.25898787 -0.19647934 -0.30068 0.7620307 -0.20186216 0.19589123 -0.1953723
-0.042047456 1.1376017 -0.466907 0.5211567 -0.06311998 -0.7892878 0.058938347 0.17531362
0.39052323 -0.9374624 -0.17117724 -0.13727564 1.2077715 -0.0016857013 -0.054911528 -0.5166267
-0.32311016 0.038119268 0.04334727 0.36797148 -0.24846822 0.42724863 -0.045257423 -0.50257283
-0.8721997 0.07302396 0.59116167 0.11047038 -0.10336262 0.047357522 0.37108946 0.28872684
0.14181943 -0.21428253 -0.2756891 -0.7058272 -0.4166212 0.5158798 0.02641469 -0.230072
0.43808657 0.3530054 -0.23768257 -0.44421446 -0.6424796 -0.19496194 0.0056659803 -0.026442494
-0.44356003 -0.1596122 0.13046502 -0.19723724 -0.5728413 -0.8761404 0.33074933 -0.20378405
0.7210832 -0.04748126 -0.2862631 0.102966115 0.34544647 0.13886324 -0.2831271 0.03847211
0.005677464 -1.3325396 -0.2892799 -0.67080605 -0.018620184 -0.36119542 -0.21553639 0.28993672
-0.42835546 0.082164116 0.056466516 0.049496103 0.38245767 0.26417017 -0.26759014 0.08342814
0.9184842 -0.2515225 -0.06822971 0.0984049 0.6828445 -0.20366697 -0.42872554 0.37226093
-0.080352165 -0.19060789 0.10344 -0.032320034 -0.0407399 0.76736915 -0.3729391 0.18409586
0.9365869 0.10790311 -0.25237736 0.06370156 -0.93609476 -0.16110015 0.18284334 -0.16873163
-0.3803957 -0.20103383 0.46827564 0.404431 1.0337539 0.020144228 0.36877006 0.27751955
1.0842608 0.047711384 1.5037286 -0.355512 -0.22540061 -0.30915764 -0.18690929 -0.05145226
-0.15962416 -2.5425155 -0.08503328 0.2918591 0.16867286 0.45753646 -0.2678976 0.35465032
-0.28002158 -0.0805008 -0.13348654 -0.101865545 -0.44249192 -0.10086841 -0.06333606 -0.2600805
0.6179087 -2.113723 -0.13062316 -0.00011364589 -0.0036573575 -0.078019924 0.17574915 0.1412946
0.94132537 0.10614876 -0.1410853 0.40359074 -0.51322496 0.0024803523 0.058929477 0.070494324
0.44067004 -0.15442729 0.5123895 -0.22249012 -0.18969384 -0.35854128 -0.06207263 -0.5909343
1.0863534 -0.14779499 -0.30268624 -0.3650917 -0.52081186 -0.106720306 -0.0077121193 -0.006937047
0.38765427 -0.0674363 0.11641718 -0.55159336 -0.12888202 -0.118591845 0.3427653 -0.02767593
0.5976702 -1.9985441 -0.14512673 0.36941284 0.07465792 0.3253165 0.18871945 0.21297628
0.85302484 -0.05418906 0.02486633 -0.43612155 -0.41442448 0.07069172 -0.10141842 -0.064601384
0.29509243 -0.26624545 0.54538864 -0.30724058 -0.4762204 -0.027701175 0.300455 -0.28101152
0.032878153 -0.6216414 0.31838214 -0.8455443 -0.0020650916 -0.12704974 -0.31217244 -0.21516894
-1.1574334 -0.32922927 0.29393142 0.11107708 0.8844348 -0.32882956 0.06882821 0.019728897
-0.24035712 0.4280889 -0.4476286 0.48730633 0.70558804 0.619943 -0.3719845 -0.12315991
0.65529525 0.14292444 0.28478286 -0.37520972 0.01852303 0.36943185 0.15683186 -0.14039949
0.29686233 0.47232702 0.25052258 0.25064495 0.28220844 0.31431744 -0.012524457 0.14011434

critic.0.bias f4 [256]
00000000: 378d 65be 3ebc f23d c547 813e b183 9b3e
00000010: 5e29 3e3e fb72 c9bd 5b90 a83e b8fc 4e3e
00000020: b650 2e3e 5519 053f 3e8b 0dbe 8635 103f
00000030: a390 923e 9b9e 5b3e 1808 b53d d230 2c3e
00000040: 46c5 0d3e 80bb 623e 64d5 4a3e 88bf 90bd
00000050: 5ebe e83d fb22 a93e 2d5c 4f3e e8ca ee3d
00000060: c3b7 84bd 2f76 853e 4ea0 103e 57fc 2b3e
00000070: 454d 2f3e 9540 693e 5616 a73d 216c 0e3f
00000080: f350 3c3e 5724 593e 5891 dd3e 85ff cc3c
00000090: 993b 45bd e68e c0bd 06fb 103e 4bfc 7d3e
000000a0: 792e eb3e 0490 c23e 2689 bd3e fe04 4ebe
000000b0: 00f0 c23e e6b2 d6bd b945 d53e cb3f fcbc
000000c0: 9164 223f 72c5 c6bd 6197 043e 609d 9c3e
000000d0: a91d 63bd ddcf 823e 71d2 8d3e 725e ba3e
000000e0: 6ecc afbc 9210 38be 059f 753e f75d ae3e
000000f0: ece7 21be 6ae5 afbd c9cc df3d 416f a83e
00000100: 2a6f 953d 4721 4fbe a95e f43e c3c5 053e
00000110: 35c7 f93d 72d7 a6bd 9792 59be 638c e5bd
00000120: 50af 27be 0c65 83be fb78 ad3e 82e1 93be
00000130: d3b7 2a3e 8496 3cbd 5027 7f3e 1760 503e
00000140: bb19 c53d 8f23 32bd 12a2 973e a6c0 3abe
00000150: 3da8 89bd a1e4 b0bc f3b7 573e c5b9 c63d
00000160: b5a5 0b3d 19d0 843e 8d24 30be fe42 903e
00000170: 423c c4be 6d45 df3d ee88 823d ebdd 763e
00000180: 5873 b63e 9a97 c13e b9d7 9e3e 7f72 92bd
00000190: 7e1d 30be 2985 aa3e 2938 9cbd 6a34 a13e
000001a0: 67a7 a73e 302f b1bc 1c8b af3e 3394 483e
000001b0: b6b7 a73e 8e8a 9e3e d70d 5c3e af09 0fbf
000001c0: 84a2 383e 5f2f e03e ef06 6e3d ea75 333e
000001d0: fd8b d83e 6720 96bd dbc1 ef3e 49ba 7c3e
000001e0: 3cbf 173f 8f23 e23e 031b 13be 7a56 f93d
000001f0: 29d9 243e cc38 733e f14e e53e ff7b ff3e
00000200: e13c 86be 343b aabd b214 083f a96d 6cbd
00000210: 037d b4bd da2c 7ebe 78f6 f3be 371f 7cbe
00000220: 9128 973e de42 dd3d e6cf a43d bc06 313e
00000230: ef26 40be b450 0dbe 3ac0 46be 43bd c1be
00000240: b583 e33d 70b9 ee3e a7e7 653d 8169 063f
00000250: d8fe d93e c696 b13e 5865 cd3d 3ec0 313e
00000260: 546f 79bd bd61 523e a258 163e 8fb1 4a3e
00000270: d0ef 263e 399d 933d f316 a83d ccc2 6cbe
00000280: e332 ee3e fba9 ce3e 6116 c23e 9c24 41be
00000290: f9af 09be b829 623e a201 a13e 22a4 553d
000002a0: ea25 f23e 028d 8c3e 3644 833e 0ae9 a73e
000002b0: c578 bd3e 764d 6f3e f202 f93e 3547 dfbc
000002c0: a494 da3c 33e7 883d b28f 1abc 7c8b 973e
000002d0: 487d 963e 4cd6 033f f709 2a3e 3dad c83e
000002e0: 1290 9c3e 529d 543e 7031 613e 9104 8b3e
000002f0: 2c60 aabd f4a6 66be d0b7 af3e 4d56 af3e
00000300: 1955 0e3f 683b d33e 50c0 663e 1e4f 043e
00000310: cf79 09be 9f36 ad3e 9cc5 693e fc32 273e
00000320: 597b 95be f3dd b93e 7ee0 c33e 6e15 a33d
00000330: 9d97 333d f077 883e 1676 67bd 5a99 21be
00000340: 9133 b23e 9019 ba3d ee32 f53e b2c2 c8be
00000350: 966f 9b3e fec3 a83e b702 63be 1203 b6ba
00000360: a7ec 653e 5c41 8a3d fb48 013f 07a3 083e
00000370: 9cac 7abd 4b75 233e 6883 273e 6e33 183e
00000380: 85a1 fc3e 92e0 a2bd e89d 003e 9ec3 273c
00000390: 0f2c e5bd 3c57 e93e f420 973d 65dc 8dbd
000003a0: 84ac 893e 0127 2b3d ab52 293e 6501 3e3e
000003b0: 2c18 723e c0da 513d 3bf5 d23d ca60 243e
000003c0: 56a5 7abe c8b5 babd 8a9b e23e 656b 3f3e
000003d0: daf5 1cbe 949c 083f 51dc 313e bade 013c
000003e0: 2a9c ac3e 97ba b83d df1b 103f 181e 6a3e
000003f0: 9198 e63d 005d 7ebe 27f4 553e e946 3c3e
-0.2241715 0.118523106 0.25250068 0.3037391 0.18570468 -0.09836384 0.32922634 0.20213592
0.17022976 0.5199178 -0.13822648 0.5633167 0.28625974 0.21447222 0.088394344 0.16815498
0.13844785 0.22141838 0.19807965 -0.07067782 0.11364435 0.330345 0.20250006 0.11659795
-0.06480362 0.2606673 0.14123651 0.16795479 0.1711932 0.22778542 0.08158557 0.5563374
0.18390255 0.21205269 0.4327495 0.025024185 -0.04815254 -0.09402256 0.14158258 0.24803273
0.45933893 0.380005 0.37018698 -0.20119092 0.3807373 -0.10483341 0.41654757 -0.030792138
0.634347 -0.097056285 0.12948371 0.30588818 -0.055448208 0.25549212 0.27699617 0.3640018
-0.021459784 -0.17975071 0.23986442 0.34056064 -0.15811127 -0.08588679 0.109277315 0.3289738
0.072965935 -0.20227538 0.4772847 0.13063721 0.12196199 -0.08146562 -0.21247326 -0.11208417
-0.1637547 -0.2566303 0.33881363 -0.28882986 0.16671686 -0.04604198 0.2491734 0.20349155
0.09624048 -0.043490943 0.29615837 -0.18237552 -0.06721542 -0.021593394 0.21066265 0.097034015
0.034093577 0.25940016 -0.17201443 0.2817611 -0.38327223 0.10901914 0.063737735 0.24108092
0.35634875 0.37810975 0.31023958 -0.07150745 -0.1719875 0.33304718 -0.07627899 0.314853
0.32744905 -0.021628946 0.3428582 0.19587784 0.32757348 0.30965084 0.21489654 -0.5587415
0.18030745 0.4378614 0.05811208 0.1752545 0.42294303 -0.07330399 0.46827587 0.24680437
0.59276175 0.44167754 -0.14365773 0.12174697 0.16098465 0.23752135 0.4478679 0.4989929
-0.26218322 -0.08312073 0.5315658 -0.057721768 -0.088129066 -0.24821797 -0.47648978 -0.24621283
0.29523137 0.108037695 0.08047466 0.17287725 -0.18764852 -0.13800317 -0.19409266 -0.37839708
0.111091055 0.46625853 0.056129124 0.52504736 0.42577243 0.34685344 0.100290954 0.17358491
-0.060897186 0.20545097 0.14682248 0.19794296 0.16302419 0.07207722 0.08207502 -0.23121184
0.46523198 0.4036406 0.379077 -0.18861622 -0.13446034 0.22086227 0.31446558 0.052158482
0.4729455 0.2745133 0.25637978 0.32794982 0.37006202 0.23369393 0.4863506 -0.027255634
0.026682205 0.06684723 -0.009433674 0.29598606 0.29392457 0.51498866 0.16605364 0.3919467
0.30578667 0.20763138 0.21991515 0.2715192 -0.083191246 -0.22524625 0.34319925 0.3424553
0.555986 0.4125626 0.22534299 0.12920806 -0.13425373 0.33830735 0.22829288 0.16328043
-0.2919567 0.36302146 0.3825721 0.07963072 0.04384576 0.26654005 -0.0565091 -0.15781155
0.34804967 0.09086907 0.4789042 -0.3921104 0.3035857 0.3296203 -0.22169004 -0.0013886413
0.22453557 0.067507476 0.50501984 0.1334344 -0.06119977 0.15962712 0.16358721 0.14863369
0.4934198 -0.0795299 0.12560236 0.01023951 -0.11190044 0.45574367 0.07379332 -0.069268025
0.2688943 0.041785244 0.16535442 0.1855522 0.23642033 0.051234007 0.1030068 0.16052547
-0.24477133 -0.09116703 0.44259292 0.18693312 -0.1532816 0.5336392 0.173692 0.007926637
0.33712894 0.09019964 0.5629253 0.22863042 0.112595685 -0.24840164 0.20893918 0.18386425

critic.2.weight f4 [256, 256]
00000000: 6764 993d ce31 30bf 8957 463e ae5c cbbe
00000010: b40a 843d ec7a 603e 0b39 c83e c6ed 9bbb
00000020: 0093 553e 46d9 093e d846 b9bd d874 0d3e
00000030: fd20 c23d cc40 873e 0efb b5be 4410 a93d
00000040: 3a43 cd3d 2616 063e 1c5f 863e 8d91 bd3d
00000050: 305b 35bf e681 13be ee2e ad3e aa63 d43d
00000060: a4b8 1d3e 10fe 8bbe 69ec 093e 3001 2c3e
00000070: 897b 203e 48fd 093e 4869 be3d 80ad 013e
00000080: 3727 4fbf 6fd4 8c3d 086d ae3e 6c6a 1e3e
00000090: 42f6 933d a051 413e d32e 2f3e 0290 c73d
000000a0: 7a0e 573c eaab 183e b59c 533e be78 adbe
000000b0: 9952 983d 59c9 1d3d de5a 093d 1156 cb3d
000000c0: 4cb1 1cbc 0e34 2dbd 9641 893e 306a 443e
000000d0: 09a0 e43d 6c63 1b3f 6bad 24bc 5f29 a73d
000000e0: 0203 8b3e af78 d7bd fd28 003e 7c46 b73b
000000f0: 17b8 1c3e 606a 7f3d 065f 463e a849 f2bc
00000100: e30a 8e3e 0f54 30bf ffe7 293e 22dd 0fbe
00000110: 37d2 6d3e 41ec 173d ce48 79bd 3ab7 953e
00000120: c8ad 0b3e f51b 703e 5bac 3a3e d49c c03d
00000130: c89c 01bf 1ec1 253e 94c5 023e 59b5 fd3d
00000140: 1bbd e53c 9ced bcbe a3c8 ac3e 39f0 103e
00000150: 967b 2e3e 1aa7 553d fc9f 873e 7301 c5be
00000160: 9f19 3b3e 2a8a ffb9 ab8e dabb a502 91bd
00000170: 7391 bdbc 1b87 fcbd f31f fcbe f82c 02bf
00000180: a9d4 073e 4cf5 73bd e7d0 973d 5719 303e
00000190: acb6 1fbf 179d f43c 790b d73d a86b d03d
000001a0: 09d9 623d 2276 343e 4416 8abe 36a7 193e
000001b0: ad42 8f3d 5006 993c ece9 013e 7ced 0b3e
000001c0: 3db0 933a c486 b53d 5359 1ebc 3955 0abe
000001d0: 2f1a 043e f42b f53c 8481 1ebc 8c48 afbd
000001e0: a78b f03d ec5c 313e 509a 94be 713f d23d
000001f0: fb82 dcbd 98b3 ee3d d117 7b3e f820 223e
00000200: 0588 ffbe a6b9 b03d c795 c43d f83c fd3c
00000210: b283 febb e003 cebd df30 e73e f046 c3bb
00000220: c736 a9be f3d4 abbe 71fe 7a3e d611 9ebc
00000230: 1200 b43d 26fa 78be e89c e93d 7c10 08be
00000240: 9451 88bd a521 17bd 1161 a9be e1e4 f53d
00000250: a9be 003e 7e5a 7c3e 321b 1bbf e63a 773e
00000260: 1d1d 663d 4cfe 153f 9bc5 2bbe 7dbf f33d
00000270: 84a3 f83c d0b2 fa3e ff61 ad3d 0f1e a7bc
00000280: 9b1c bb3d fed6 0f3e ad38 f03d 2bc3 3e3e
00000290: 707d b7bd 0149 8ebe 7bbb 3e3e a0be 113e
000002a0: 3855 2d3e 2e80 0fbf 6561 06bc 4a4e fe3d
000002b0: 4dc3 843d ed3e b1bc 07bc b43e fc7e 593e
000002c0: d10a 833e f7ac 7b3d 7a7b 233e aa3f f0be
000002d0: 7c17 85bd 1f47 db3d 6059 1f3e ba06 cc3e
000002e0: ffa0 5fbc 9fc2 c53d 2723 203e 3c23 973e
000002f0: 0801 21bf 88c9 6e3d 0bd7 663e bc4c d7bd
00000300: 8f69 c8bd 7eca d23e 355f 403e 6ead 5ebe
00000310: 1300 393a 525b b2bc 2158 c2be ef44 8abd
00000320: 8100 bcbd 20ef 213d bfa1 0bbf 9fcb 1cbf
00000330: c333 0abe 5f97 d6ba c36e 8fbc 51ab 353d
00000340: da36 3fbe d142 223e 6187 763e 1a3a 1cbe
00000350: 43c7 47be 5bdf 133e 10ff 3abb ac38 ea3e
00000360: 2ebc 093e 25fd 913e 9c34 3d3e f615 a43d
00000370: f357 e8bc 644f 3abd eca9 0a3d 249e d83d
00000380: acd3 053d 8542 c13e 6f0e 893d 703b cdbe
00000390: fa27 0ebc 1f4d 24bd ddb5 b6be 26b6 8a3d
000003a0: 9db9 8c3d ba0e 11bf 617c 063e f5b3 dc3d
000003b0: 4fa6 943d 577f 663c e659 0ebe 4419 483e
000003c0: 3e61 893e f354 26be af55 973d 0074 c93d
000003d0: 9a89 0dbe e8c7 223d ae12 1a3d 7788 5d3d
000003e0: f3c3 90be 99aa 5e3e 5b75 3cbb bb67 7d3e
000003f0: f00c 0f3e 09b1 11bd 9177 6a3e 1d82 05bf
0.07489853 -0.68825996 0.1936933 -0.39719146 0.06447354 0.21921891 0.3910602 -0.0047585694
0.20856857 0.1346179 -0.090467155 0.13814104 0.09478948 0.26416624 -0.35543102 0.082550555
0.10022588 0.13094386 0.26244438 0.09256277 -0.70842266 -0.14405021 0.33824867 0.10370572
0.15402466 -0.27342272 0.1346909 0.16797328 0.15672125 0.13475525 0.092974246 0.12663841
-0.8091921 0.06876456 0.3406756 0.15470284 0.07224704 0.18878794 0.17107706 0.09744264
0.01312601 0.1490933 0.20665248 -0.3388118 0.07437629 0.0385221 0.033533923 0.09928525
-0.009563755 -0.04228597 0.2680785 0.19181132 0.11163337 0.6069858 -0.010051112 0.08162188
0.27150732 -0.105210654 0.12515636 0.005593119 0.153046 0.062357306 0.19372186 -0.029576138
0.2774268 -0.68878263 0.16592406 -0.14049199 0.23224722 0.037090544 -0.060860448 0.29241353
0.13640511 0.23448165 0.18229811 0.094049126 -0.50629854 0.1618695 0.12770683 0.12388105
0.028044274 -0.36900032 0.33746824 0.14154138 0.17039332 0.052161314 0.26489246 -0.38477668
0.18271492 -0.0004874033 -0.0066698394 -0.070805825 -0.023140645 -0.12330457 -0.49243125 -0.50849867
0.13264717 -0.059560105 0.07412892 0.17197166 -0.6238811 0.029860063 0.10500235 0.10176784
0.055382762 0.17623189 -0.26970112 0.15005192 0.06995139 0.018679768 0.1268689 0.13664812
0.0011267733 0.08863595 -0.009664851 -0.13509072 0.12900613 0.029928185 -0.009674434 -0.08558759
0.117453866 0.17320603 -0.2902398 0.10266007 -0.1076717 0.116553485 0.24520804 0.15832889
-0.49908462 0.0862916 0.0959888 0.030912861 -0.007767164 -0.10059333 0.45154473 -0.005959384
-0.33049604 -0.33560905 0.24511124 -0.019295614 0.08789076 -0.24314174 0.114068806 -0.13287538
-0.06656185 -0.03689732 -0.33081868 0.12006546 0.12572731 0.24643895 -0.6058837 0.24143562
0.05618011 0.5859115 -0.16774599 0.11901758 0.030351408 0.48964548 0.08465957 -0.020400075
0.091363154 0.14046857 0.1172956 0.18629138 -0.08959472 -0.27790073 0.18626206 0.14232874
0.1692704 -0.5605496 -0.008201932 0.12417276 0.06482563 -0.02163645 0.35299703 0.21239847
0.2559419 0.06144425 0.15965071 -0.46923572 -0.0649862 0.10706925 0.15561438 0.39848882
-0.013649224 0.09656262 0.1563841 0.2951907 -0.628922 0.058297664 0.2254297 -0.10512683
-0.09785759 0.41170114 0.18786319 -0.21745846 0.0007057201 -0.02177206 -0.37957862 -0.06751429
-0.091797836 0.039534688 -0.5454368 -0.612482 -0.13496308 -0.0016372016 -0.01750887 0.044352833
-0.18673268 0.15845801 0.2407508 -0.15256539 -0.19509606 0.14440672 -0.0028533377 0.45746362
0.13450691 0.28513446 0.184771 0.08012001 -0.02836225 -0.04548587 0.033853456 0.10577038
0.03267257 0.37746063 0.06692206 -0.4008441 -0.008676523 -0.04011261 -0.35685626 0.06773023
0.068713404 -0.56663096 0.13133384 0.107765116 0.07258283 0.014068446 -0.13901481 0.19540888
0.26832002 -0.16243343 0.0738939 0.09836578 -0.13822022 0.039741427 0.03761547 0.05408522
-0.28274497 0.21744765 -0.0028756473 0.24746601 0.13969779 -0.035569225 0.22897173 -0.5215166

critic.2.bias f4 [256]
00000000: f4af 223c e79b eb3d 9569 583e c506 df3d
00000010: a04a 38bc ef89 293e 4a2c 6cbd 1e27 123e
00000020: f056 c43d a5fa 553b c8dc ef3d 1d56 8b3d
00000030: c5d9 273e 4ac8 c13d 015a 1f3d 80e7 a8bb
00000040: 4f52 a9ba 83ad aabc 43b6 56bd cc85 723e
00000050: 6aac 12bd 0c7d 863e 670d 4e3c 6525 1fbc
00000060: 1da9 623e d8f8 60b9 3ebc 073d 2cc0 55bd
00000070: be1f 343e f89a 893c 8d90 7b3e be87 f73c
00000080: 0884 f8bc 1792 673e 1e61 853d be40 383c
00000090: c593 3e3e c347 8ebd c173 e6bd e6e0 2c3e
000000a0: b5d0 10bd a726 cc3d 5950 1e3e 7ff7 34bb
000000b0: d699 aa3c de70 513e 9347 90bd c5e9 333e
000000c0: a6e5 303e efae babc 9d80 5e3e ff50 d63a
000000d0: 0ab6 04bc 0abd a63b 6712 ef3d aa83 df3d
000000e0: 674d 243e 163d 31bd 3d43 21bd 3eef a73d
000000f0: da70 f33d 6ca7 363e f937 773e 2af2 253e
00000100: 98ae 8a3c 7903 063d c258 233c de2d 33bd
00000110: 559e 0abd b2a2 823d e0f7 e83d d067 533d
00000120: 6f9f b6bd f8cd 253e b3f0 f83d cc66 9bbc
00000130: 280f 623e 2844 eb3d e33d 42bd 5470 563e
00000140: 998c 64bd f48c 5abd 5f28 a03d 21f4 5bbd
00000150: b078 693d 257f 113d 0ed6 5dbc 396c 02bb
00000160: b25b 78bd b10d 8b3c 344f 36bd ab68 053e
00000170: ed11 36bb ecda 70bd 3bdd 8b3d f2f2 a43c
00000180: 46c1 443e cd2e 2cbd d2e5 083e 0832 f63d
00000190: e025 9d3d 9e34 8f3d e668 46bc 6f07 38bd
000001a0: 7f1c c4bd 336e ae3d 6e9a 6d3d 4a29 e5bc
000001b0: 6ff0 a93d 9129 ba3d e534 fe3d 81a4 013e
000001c0: ccc2 7fbc 93e3 62bd 4dac b1bc 2fdf b03b
000001d0: 3618 cebd 67ba 3abd 1243 44bd 10ef 52bd
000001e0: cd1c 783c 560c 113e 845a 8bbc 8e5e 9d3d
000001f0: 8b50 e73b 2d50 ce3c a0ce 65bc 6a5a 8bbb
00000200: 45f0 06bd ffd2 1f3e 6da3 d2bc 807b 093d
00000210: fbef 053e ae1c bdbc 64a7 a33c 00a9 433e
00000220: ecb0 b23c 2ab0 fd3d 382e 04bd ad6e 953c
00000230: 8e7c 883c 0d0a 5dbc 0094 c0bc b54d 563d
00000240: 4ef9 d43d 38ac 5c3e 7218 17bd aba2 233d
00000250: bb5c d8bc 2c12 84bb 9ffc e73c 5822 6739
00000260: 72e1 703d 9412 823c c59b 3f3e 886d cb3b
00000270: 3c4c c83d 884d 703c 0994 e93d 7332 3abd
00000280: 1748 03bd 5d80 063e 30c6 84bd 817d ec3d
00000290: 23b2 193d 6362 143e f1c3 d3bb 9e9c b13d
000002a0: 8962 3cbd 99e1 d03b fb52 c9bd 60f4 bd3c
000002b0: 8fe2 2d3e 9d56 5b3d f572 ef3b 99f2 a1bc
000002c0: 53f0 f53c ebf3 1c3d e850 f7bb 7ba4 74bc
000002d0: 8f04 87bd cff2 5d3d 783a b13d 0efd 483e
000002e0: 5db1 303e 5a54 aebd 6a9c 83bd 0a55 753e
000002f0: f492 e4bb 8ad4 613c 932c 093d 8103 1e3d
00000300: 7dd7 5c3d d622 1f3e f740 3a3e 0570 7c3e
00000310: f2f2 1e3d 2ea9 e63d c447 89bb a321 dabb
00000320: 664f 1f3d 5d95 a5bc 312a cfbc 162d 40bd
00000330: a514 2f3e 8ddf 75bd ae8c 473e b927 693d
00000340: eca4 eb3d f430 803c 334d 153d 1285 153d
00000350: 27d6 44bd cbab 2a3e e26d 9e3d e937 ba3d
00000360: 60e9 9f3d d294 86bb 2c6a 9cbc 5382 88bd
00000370: 33fe 943d 8509 8ebd 938f 11bd 2e53 d33c
00000380: 3c14 2f3e 1fae 733d 66ee 8fbd 4448 933c
00000390: 6fae 15bd 646e 943c 7f6d c2bd bf36 593d
000003a0: cd1e d4bd 645d 7a3d 6f32 eabd 1754 9fbc
000003b0: 496a 0e3e 5291 a83d ba36 e03d f46d d23c
000003c0: 87b2 45bb bec1 03bd 18ff dc3d 90a6 09bd
000003d0: 5668 1ebd b876 8ebd 6ebf 48bc a5b3 3fbd
000003e0: 12aa 6abc 462e bf3a 8437 a03d dadd f63b
000003f0: 22f7 233e d423 a5bd 82b9 383c 682a 193d
0.009929646 0.115043454 0.21134026 0.10889963 -0.011248261 0.16556524 -0.057659425 0.14272735
0.095868945 0.0032650616 0.117120326 0.06803534 0.16391666 0.0946203 0.038904194 -0.00515455
-0.0012918207 -0.02083469 -0.052419912 0.23683852 -0.035808958 0.26267278 0.012576438 -0.009713505
0.22134824 -0.00021455006 0.033138506 -0.052185223 0.17590234 0.016797528 0.2456686 0.030216094
-0.030336395 0.22614323 0.06512664 0.0112459045 0.18611057 -0.06947281 -0.11252547 0.16882667
-0.03535529 0.0996831 0.15460338 -0.002761334 0.020825308 0.20453212 -0.07044902 0.17569645
0.17275104 -0.022788493 0.2172875 0.0016351043 -0.008100042 0.005088453 0.11673432 0.10913785
0.16045152 -0.043271147 -0.039370764 0.08199929 0.11886759 0.17837304 0.24142446 0.1620566
0.016928956 0.032718156 0.009969892 -0.043744914 -0.033842403 0.06378688 0.113754034 0.051612675
-0.08917128 0.16191852 0.12155285 -0.018969916 0.22076094 0.11487609 -0.0474223 0.20941287
-0.055798147 -0.05335708 0.078202 -0.053699616 0.056999862 0.035521645 -0.013539804 -0.0019900932
-0.060634322 0.016974302 -0.044509128 0.13028209 -0.002778168 -0.05880253 0.06829306 0.020135377
0.19214353 -0.04203682 0.1336892 0.120212615 0.0767324 0.06992458 -0.012109971 -0.044928964
-0.09575748 0.085171126 0.058008604 -0.02797379 0.08297812 0.090899594 0.124124326 0.1266041
-0.015610408 -0.055392813 -0.021688605 0.0053976993 -0.100632116 -0.045587923 -0.047915526 -0.05149752
0.015143585 0.14164862 -0.017010935 0.076840505 0.007059162 0.025184715 -0.014026314 -0.0042527216
-0.032943983 0.15607832 -0.025712693 0.033565044 0.13079827 -0.023084965 0.019977279 0.19107437
0.021812879 0.12387116 -0.03227064 0.01824125 0.016660955 -0.013491166 -0.023508072 0.0523202
0.103991136 0.21550071 -0.036888547 0.039950054 -0.026411405 -0.0040304866 0.028318701 0.00022042671
0.05880875 0.015878 0.18711765 0.0062081255 0.097801656 0.014666922 0.114051886 -0.04545827
-0.032051172 0.13134904 -0.06483114 0.115473755 0.0375234 0.14490657 -0.006462567 0.086724505
-0.045992408 0.0063745496 -0.098302804 0.023187816 0.16980956 0.053549398 0.007307405 -0.019769
0.030021822 0.038318556 -0.0075474866 -0.014931793 -0.06592666 0.05418664 0.0865373 0.19627783
0.17255159 -0.085121825 -0.06426318 0.23958221 -0.006975526 0.013783583 0.033489775 0.03857756
0.053916443 0.15540633 0.18188845 0.24652107 0.03880591 0.11262737 -0.0041894633 -0.006656842
0.03889408 -0.020212824 -0.025288673 -0.046917997 0.17097719 -0.060027648 0.19487259 0.056922648
0.11506066 0.015648343 0.036450576 0.03650386 -0.048055794 0.16667096 0.07735802 0.09092695
0.078081846 -0.004107096 -0.019093595 -0.06665482 0.07275047 -0.069354095 -0.035537314 0.0257965
0.17097563 0.059492227 -0.07027893 0.017978795 -0.036543306 0.018119045 -0.09493541 0.053030726
-0.10357437 0.06112422 -0.11435401 -0.019449277 0.13907732 0.08230843 0.10947938 0.025687195
-0.0030166225 -0.03216719 0.10790843 -0.033606112 -0.03867372 -0.069562376 -0.012252672 -0.04680218
-0.0143227745 0.0014585934 0.07823089 0.007533771 0.16012242 -0.08063474 0.011274697 0.037393957

critic.4.weight f4 [1, 256]
00000000: 322a 433f a148 173f 6e48 343f 0f1a ebbf
00000010: 246b 45bf 5e20 a4bf 8c4d 65be 60e6 a33e
00000020: d50f 19c0 e0b8 f83c 1b73 f23e fb35 37c0
00000030: d20c ffbf 6faa 803f 56b0 993a bea3 37bd
00000040: 607e 17bf aace 9b3d 675c 2e3d f581 57bf
00000050: bcbe 323d b445 b6bf 3e2e cabe 5fc7 823c
00000060: b77c 183f ad8f fabe 33ff 213c 4143 febe
00000070: 99a5 343f fd53 cfbf ee4a 50bf fcea bbbf
00000080: 981f 7fbe f8b7 c4bf 5c44 6d3e 82e5 21bf
00000090: 0173 9ebf bcd4 423d fb2d 1bbf ffda 14c0
000000a0: d909 a6be 8de7 f7bf a2bc afbf 0a58 553d
000000b0: dcfb 9c3e a68b 273f 974a 9dbf fbb7 3abf
000000c0: f426 fcbf a53c 8fbe ab2a 433f 15c4 8ebf
000000d0: c6d5 aa3c 2d11 8cbe 97e2 56bf 5e30 4c3f
000000e0: dbdb b03e 7d2f 40bf b514 b63d 9ca2 b0bf
000000f0: 18c5 75bf 5add d8bf c159 97bf 1135 60bf
00000100: c11e a73d 165b b13d 4e95 b13c 6350 45bd
00000110: 14c0 e73d f5b2 4a3d 449f ee3e bf5a 113f
00000120: 09e4 9cbf 1f3b fa3e 5306 a93e 98fd afbf
00000130: c813 24c0 ab5e e13e ece1 ef3c 446f 19c0
00000140: 5720 0ac0 0568 61bf da9b 873f 8c7d d93d
00000150: 807b d4bf ecb2 4d3e 99a7 16bf 3f23 653d
00000160: 6d90 39bf c0d0 16bf 35f3 aebf 27e4 1c3f
00000170: f205 3e3d bea1 113d 7756 8d3f e58b 06bf
00000180: 106c 263f 3bbe e13d e048 f7bf 1bbc b7bf
00000190: 1ecc cf3e ab6b 7c3f 005b 91be eaad 803d
000001a0: 6ad7 a1bf 18d0 d9bf 077f 0ec0 a662 1ebf
000001b0: 54e4 4c3f be66 223e 719a 9dbf 28d9 373f
000001c0: ec34 96be 5f22 fabe 1a2a df3d 3b30 5d3d
000001d0: 508c 1dbf ec79 c8bf 9fc8 cc3b c26d 92be
000001e0: e5ab 223f 5b1e febf fbfa 3fbf 7d2f 51bf
000001f0: 1208 c0be 2279 d83c 903a 36bc 6274 c8be
00000200: d931 84be 5cff 16c0 5bc4 9e3d 38f1 60bf
00000210: 0d98 663f 6c99 6d3c 9ee7 aa3d 1904 ebbf
00000220: 410f e83d 4ac9 cb3e b3e2 14bf 6ecb 23bf
00000230: 65ab 513d 5f43 533d 71f6 713d 13d0 673d
00000240: b585 b9bf eaae 3b3f 94bf 29bf c3e7 823d
00000250: 6990 efbe b40f 1c3d e295 1b3d f459 ebbf
00000260: 85ae 0d3f f60d f43c b9f1 72bf e6c7 6a3b
00000270: ad35 8a3e 3678 753d 8df8 ca3e ed7a 9e3c
00000280: 37c0 843d 12aa 4dbf 368b fa3d 1ba5 0b3f
00000290: 8407 a73d da64 293f 4f64 573d 3ecd 8f3e
000002a0: d775 64bf 4bfd 1c3d 7301 12bf 47c4 88be
000002b0: c667 dd3e dc9b 1ebd aa46 84be 6793 8bbe
000002c0: 0cf7 e5bf 8c3c ff3e 37e3 9dbf 91a2 fc3c
000002d0: 3c06 5cbe ac8e 033e d0b4 35bf 52a6 f23e
000002e0: f297 a9bf 8724 863d 0733 18bf fb0a 333f
000002f0: 09e9 2dbf 2678 5bbe 0c12 bf3d 2e10 b1bf
00000300: 154d 213d f154 1d3f eac8 0abf 0dc6 68bf
00000310: e932 ed3d e563 bb3e fc9b 7cbf 736e 783d
00000320: 7679 bf3d aab5 44bf 95bb 93be 84a1 423c
00000330: 26df 1dbf d945 2dbf 6c18 2c3f 67ad f63e
00000340: f9aa 5e3e b04b 803d 319c 85be f30c 3b3f
00000350: 1ebe efbe 1481 9c3e 317b 1bc0 7f03 ad3f
00000360: 6587 ecbf b829 e83a 7e23 003d 426e 623c
00000370: a5c7 58bf 89b9 cc3c e4e8 88bc bda1 763d
00000380: 045d 2e3f a8bd 883f 1603 17bf f08d 913b
00000390: 4e90 163f 7f4d 8b3e af2f f7be d49e 1dbc
000003a0: 1919 48bf 37d0 b8bf 878b d7be 973e 0fbf
000003b0: 32c2 523f 075a d5bf e690 a8bf d5c6 c63d
000003c0: 8eb4 cdbe eb5a 85be afd2 883f 8597 e2bf
000003d0: 6b66 573d 62d7 1d3d 4887 42bf bd8d d0bd
000003e0: 8efd 17bf 9b1f 343f c318 edbf 678b 2bbf
000003f0: 437a 77bf a6be 89bf 0468 b53d 19e0 70bf
0.7623626 0.590952 0.7042302 -1.8367327 -0.7711661 -1.2822378 -0.22392863 0.320117
-2.3915913 0.030361593 0.47353444 -2.8626697 -1.9925787 1.0052012 0.0011725526 -0.04483389
-0.5917721 0.076077774 0.04256859 -0.84182674 0.04363893 -1.4240022 -0.39488405 0.015964208
0.595653 -0.4893774 0.009887504 -0.49660686 0.7056518 -1.6197506 -0.81364334 -1.4681087
-0.24914396 -1.5368643 0.23170608 -0.63240826 -1.2378846 0.04756616 -0.60617036 -2.3258665
-0.32429388 -1.9367539 -1.3729441 0.052085914 0.30660903 0.6544746 -1.2288388 -0.7293698
-1.9699388 -0.27975956 0.7623698 -1.115359 0.020853888 -0.27356854 -0.839395 0.797613
0.34542736 -0.7507246 0.08890668 -1.3799624 -0.96003866 -1.6942551 -1.1824266 -0.8758097
0.08160163 0.086599514 0.02167764 -0.048172366 0.11315933 0.049487073 0.46605885 0.5677909
-1.2257091 0.4887323 0.33012637 -1.3749266 -2.5637074 0.44017538 0.029282533 -2.397416
-2.1582239 -0.88049346 1.0594437 0.10619649 -1.6600189 0.20087785 -0.58849484 0.055941816
-0.72486 -0.5891228 -1.3667971 0.6128563 0.04639239 0.03555464 1.1042012 -0.5255721
0.6500864 0.11022612 -1.9319115 -1.435428 0.40585417 0.9860179 -0.2838974 0.062831715
-1.2643864 -1.701663 -2.2265031 -0.61869276 0.800359 0.15859506 -1.2312757 0.7181573
-0.2933725 -0.48854348 0.10896702 0.054001074 -0.61542225 -1.5662208 0.006249502 -0.28599364
0.6354354 -1.9853014 -0.7499234 -0.81713086 -0.37506157 0.026424948 -0.011122361 -0.39151293
-0.2581928 -2.359336 0.077522956 -0.8786807 0.9007576 0.014501911 0.08344959 -1.8360626
0.113310345 0.3980201 -0.58158416 -0.63982284 0.051188845 0.051577922 0.059072915 0.05659492
-1.4493929 0.7331377 -0.6630795 0.06391861 -0.46789864 0.038100913 0.037984736 -1.8386827
0.5534442 0.029791813 -0.9490009 0.0035824715 0.26994076 0.059929095 0.39642754 0.019345725
0.064819746 -0.8033763 0.12233584 0.54548806 0.0815573 0.6616951 0.052585896 0.28086275
-0.8924231 0.038327496 -0.5703346 -0.26712248 0.43243235 -0.038722858 -0.25835162 -0.27260897
-1.7966018 0.4985088 -1.2334965 0.030839236 -0.21486753 0.12847394 -0.7097902 0.47392517
-1.3249495 0.06549936 -0.5945286 0.6993863 -0.6793371 -0.21432552 0.09329614 -1.3833063
0.03938015 0.61457735 -0.5421282 -0.909272 0.11581976 0.3659965 -0.98675513 0.060652208
0.09349339 -0.768397 -0.2885405 0.011879329 -0.6166862 -0.67684704 0.67224765 0.4817917
0.21744908 0.06264436 -0.26095727 0.73066634 -0.46824735 0.3056723 -2.429394 1.3516692
-1.8478819 0.0017712628 0.031283848 0.013820233 -0.84679633 0.024990814 -0.016712613 0.06021284
0.6811068 1.0682878 -0.58989084 0.004441969 0.5881394 0.27207562 -0.48278567 -0.009620387
-0.78163296 -1.4438542 -0.42098638 -0.5595488 0.8232757 -1.6668099 -1.316922 0.09705893
-0.40176815 -0.26045927 1.0689296 -1.770249 0.052587908 0.038535483 -0.7598767 -0.101832844
-0.5937127 0.70360726 -1.8523182 -0.67009586 -0.9667093 -1.0761306 0.0885773 -0.94091946

actor.0.weight f4 [256, 8]
00000000: dfc2 493e 499b 5a3e 7d1a 3d3e cba7 aa3e
00000010: df56 fdbe 069e 2bbf dce5 183e bfd4 233e
00000020: 0d4f 07be deda 8ebe 8804 24be f067 01be
00000030: 4166 3f3f abc5 303f b84d 113d 3465 d1bd
00000040: b439 413e 9bc6 993d 99b9 c53e cf2b c63d
00000050: 54d9 13bf 9ebe dbbe dab3 9b3e 2e84 8fbe
00000060: b2e7 023f 3c57 c8be 7a32 593d 3c9c 84be
00000070: ab34 32bf 2091 e23c f77b d1be a49f 32bd
00000080: bfbd 973e 4062 53be 85fb 1e3e 793f 1abe
00000090: 8df6 5bbe f57d 273e 6d6d 2cbd c995 4fbe
000000a0: c903 a23e ced1 aabe aaa9 993e 6946 0bbf
000000b0: e6dd dd3e bdab dd3e 32cc ca3e aee6 89be
000000c0: 6621 7b3d 3049 abbe 25b4 963d cc19 dcbe
000000d0: 1c8f 80be 2c11 01bf 2cf5 143c 78d8 833d
000000e0: ba4d c3bc 432d 58be 9528 13be e73d 1bbd
000000f0: 5c16 2abf ef46 e8be a21e 37be a982 08bf
00000100: 12b0 093e d368 e5bd ba83 993e 1544 3dbe
00000110: 372b ab3e fa3d 9c3e b0e7 11be aaa8 2dbd
00000120: 4f46 08bf 7271 5d3e a5a0 72be 4471 573e
00000130: f236 ef3e e358 003f 0413 03be 4fc7 c33d
00000140: fb89 52bd 27e3 90bd 57fa a73e 719e a8be
00000150: 1896 8ebe b70d 893d 4495 8bbe 7617 a2be
00000160: 82e8 babd 1d50 7dbe 0264 55be e121 603e
00000170: 0399 ec3e 9fa8 98be fdcf 1a3d a05f 623e
00000180: 2f31 bbbd 5760 813d 9dcb 81be c815 933e
00000190: 752c 6e3f 4eb9 f33e 832b 2fbe 50ce 733d
000001a0: a166 8bbe 384b cd3d fc3d ec3e 13dd fe3e
000001b0: 44e6 a03d 9c6a fdbd 12e6 dabc 0b59 d33d
000001c0: 31ef 18be c407 96be a7cc 4c3e 1552 8d3e
000001d0: a848 e43d 6d63 85be 3feb 87be 144c 8dbe
000001e0: f5cc 21be cb7c cdbd afaa 2e3f 7c0d 563e
000001f0: a1fb dbbe 4c0e b3be f120 bd3d a520 263e
00000200: 0fc1 633e 8026 313c 08f2 d9bd 3417 12be
00000210: e509 113f f39c 383f 3713 8a3e 81b4 cfbd
00000220: a510 43be cf6e cc3d 770a 5e3d 169a 08be
00000230: f763 ffbe 5bdb f3be 21e1 a23e ead0 85be
00000240: 8f5f d03e 117e edbb 61cb d63e 40cd e1be
00000250: 8f76 57bf ed10 16bf 2436 1d3e 7914 8abd
00000260: 13b1 40be 71f8 693e 746a 89be dc17 733c
00000270: d900 503e b8fa 1f3f 8256 a2be 9688 41be
00000280: 13ee 7b3e e5e5 3f3d 655f d7be f65a 1e3f
00000290: 0910 313f 5522 153e ae3f 133e 74eb 1c3d
000002a0: 0358 fc3e 496d d63d 9720 bf3e fe0e 313d
000002b0: bda1 0b3f 02d6 e3be a81a 93be 35c6 053e
000002c0: a2b1 a3be 208e 073e 7b2f c4be 8ee6 033f
000002d0: c2c6 3f3f d826 c53c 61e8 653c 3c28 c8bb
000002e0: 1b2a 353e ac0a b83e 07a3 50be 0c00 9ebb
000002f0: 8c44 3b3e bb69 0b3f f1a1 de3d e12f 883e
00000300: efe3 07bf 63f5 4dbe 5b2f 2fbd af90 4bbe
00000310: d5dd debe 62a2 733d 82e8 f7bc 564e 9f3d
00000320: f90f 83be ea75 3d3d 04ba 95be 1588 b43e
00000330: cad4 b03e 52a7 e23e 0cbc d1bd 338f f83d
00000340: d535 fd3d 872a e1be 91dc b23e b820 103f
00000350: c566 14be d565 1ebe bbb6 cabe 7721 ecbd
00000360: b920 eb3d 25c6 50be 0834 e7be ca2d ad3d
00000370: e66f 87ba 6b28 fdbd 1af4 453a 804f a33e
00000380: cb97 abbd 35c7 21be 9ab7 2abe dcf0 03bf
00000390: de4f 0ebf 6189 953e 1f5c 04bd 4af4 623e
000003a0: bd74 32be 4b33 403e e848 e7bd 98fa c23e
000003b0: 5cb8 063f 3995 cb3e 8227 e8be f5b0 96bd
000003c0: de77 853d ac9a 003b e2dc a43e 0767 d53e
000003d0: 003f b5be ab7b d3be 0772 a0be 1fec 3ebd
000003e0: 84b4 b5be 9ca7 af3d fd2c c8be c9a1 aabd
000003f0: b964 8fbd e079 20bd f662 02bd f2d2 70be
0.19703244 0.21348299 0.18467136 0.3333114 -0.4948034 -0.67038 0.14931434 0.15999125
-0.13213749 -0.27901357 -0.16017354 -0.12637305 0.747654 0.6905162 0.03547451 -0.10224381
0.18869668 0.07508584 0.38618162 0.096763246 -0.5775349 -0.42918867 0.30410653 -0.28030533
0.5113479 -0.39129055 0.053026654 -0.25900447 -0.69611615 0.027657092 -0.4091489 -0.043609276
0.29636952 -0.20642948 0.15525635 -0.15063275 -0.2148077 0.16356643 -0.042096544 -0.20271982
0.31643513 -0.33363193 0.30012256 -0.5440431 0.43333358 0.43295088 0.39608914 -0.26933807
0.061311148 -0.33454275 0.073585786 -0.4298843 -0.25109184 -0.5041683 0.009091657 0.064377725
-0.023840774 -0.21111016 -0.1437095 -0.03790083 -0.6644037 -0.45366618 -0.17882779 -0.5332437
0.13446072 -0.11201634 0.29983312 -0.18483002 0.33431408 0.30516034 -0.14248538 -0.04239718
-0.5323228 0.21625307 -0.23694094 0.21039301 0.46721607 0.5013563 -0.12800223 0.095594995
-0.05140112 -0.07074576 0.32808182 -0.3293338 -0.27848887 0.06692069 -0.27262318 -0.31658524
-0.091263786 -0.24737592 -0.20838931 0.21887924 0.4621049 -0.29816148 0.03779601 0.2210679
-0.091402404 0.063172035 -0.25350657 0.28727555 0.93036586 0.47602314 -0.17106442 0.059522927
-0.27226737 0.100241125 0.4614104 0.4977804 0.0785642 -0.1237385 -0.026721034 0.10319718
-0.14934994 -0.293028 0.19999944 0.27601686 0.111466706 -0.26052418 -0.26546666 -0.27597106
-0.15800841 -0.10033568 0.6822919 0.20903581 -0.42965415 -0.34971845 0.09234799 0.1622339
0.22241615 0.010812402 -0.10641867 -0.14266664 0.5665572 0.72114486 0.26967785 -0.1014185
-0.19049318 0.099820726 0.0542092 -0.13340029 -0.49880955 -0.47628292 0.31812385 -0.2613595
0.40697905 -0.0072476943 0.4195204 -0.44101906 -0.8416528 -0.58619577 0.15352684 -0.06742186
-0.18817548 0.22848679 -0.2683903 0.0148372315 0.20312823 0.6249194 -0.31706625 -0.1889976
0.24602537 0.046850104 -0.42064968 0.61857545 0.6916509 0.14563878 0.1437976 0.038310483
0.49285898 0.10470063 0.37329552 0.04322719 0.5454367 -0.44499213 -0.28731275 0.13063891
-0.3197146 0.1323781 -0.38317475 0.51523674 0.74912655 0.024066374 0.014032454 -0.006108312
0.17691843 0.35945642 -0.2037469 -0.004821783 0.18287867 0.54458207 0.108707316 0.2659903
-0.53082174 -0.20113139 -0.04276977 -0.19879411 -0.4352862 0.059481032 -0.030262236 0.07778613
-0.25598124 0.04625503 -0.2924348 0.35260072 0.34537345 0.4426828 -0.10240945 0.12136688
0.12363783 -0.43977758 0.34933904 0.56299925 -0.14492328 -0.15468533 -0.39592537 -0.115298204
0.11480851 -0.20388086 -0.45156884 0.08455999 -0.0010333031 -0.12361225 0.00075513276 0.3189659
-0.083785616 -0.15798648 -0.16671601 -0.515394 -0.5559062 0.29206374 -0.032314416 0.22163501
-0.17427345 0.18769567 -0.11293203 0.38081813 0.5262506 0.39762285 -0.45342642 -0.073579706
0.065170035 0.0019623442 0.3219977 0.41680166 -0.35399628 -0.4130529 -0.31336996 -0.0466119
-0.35489285 0.08576891 -0.39096823 -0.08331639 -0.07001633 -0.03917873 -0.031832658 -0.23517969

actor.0.bias f4 [256]
00000000: d342 2a3d f6b8 fe3d e320 173d 533e 423e
00000010: e23c 24be 4d3b edbd 0b04 d4bb 2877 243e
00000020: 832c 513d 7e80 dd3d de65 98be 5ede 57be
00000030: a8c3 513e 5936 64be 25ce 06be 0efa 09be
00000040: d641 d9bd 32e8 4ebd bd28 a53c d0a1 cdbd
00000050: b257 e0bd c62a 1abe f019 2b3e a36a 96be
00000060: cf7c 243d 7e8f f13d 9f2f 8e3e 2796 98be
00000070: afaa 0dbe 4355 2d3e ad86 1e3d 4746 c0bd
00000080: 106f c53d 9e31 f03c 16d2 133e 5718 df3d
00000090: a341 0abe 1f49 a7be 5642 ab3d e203 183c
000000a0: 5c43 59be fc7f 723c 56fb da3c a668 523e
000000b0: 9b91 5cbd b516 823c 1e3e c83d f678 323e
000000c0: 47f4 f53d bfdd a73d cc06 653e 00af 10bc
000000d0: cfe7 02be 595f 253e b6b1 8c3d 2c05 acbd
000000e0: 5a6c 3abd 9757 54be 9e50 64bd f108 813e
000000f0: 3341 72bd 0e22 11be a8f3 46be 3850 553c
00000100: 1656 eabd 8f02 d33d 06d4 703e 899d 02bd
00000110: 7de1 92be 62d4 f4bd 6467 dabe 072c 943d
00000120: 5cda 6abe 5514 9d3c b86b fb3c f082 3cbe
00000130: 9af5 56bc 1d83 563e 5988 a3bc 74f8 cf3d
00000140: 2b2d 3fbd 622c f43d dd96 023e fb38 8cbe
00000150: 9472 153c 8f58 fabd 0531 dab9 aac5 dd3d
00000160: f0c2 2c3d 43f6 e73d ae45 28be 726e 0d3e
00000170: 73fc 293e bc73 1b3e d340 be3d cfc8 4abe
00000180: 1722 f13b ba22 0dbe 6706 d53d d717 533e
00000190: f149 843e 313a a63d 2144 803e 73d7 1bbe
000001a0: d456 003e e538 29be 669d 88be 589a 913c
000001b0: 9918 093e 90cd 703c d279 423e e053 b0be
000001c0: e22d a5be 8bc0 e3bd 2beb df3c 43cb 4e3e
000001d0: 7431 d83c ddbf 0f3e 0a45 02be 7f12 45be
000001e0: b30e cc3d aab4 35be 3977 9ebe 2959 9ebe
000001f0: 1900 793e f72e cdbd 3bae 07be 00f1 1bbd
00000200: 9607 dfbd 40f6 2e3e 7b28 213d cf95 4fbe
00000210: c0cb f0bd d2d6 06be 6e65 abbe feec c23d
00000220: 3ca6 293e e871 38bd a2f3 99bd 0f71 f1bd
00000230: 1933 9f3d ec79 d2be b9bb 843d f416 ad3d
00000240: 0720 70be 7b5f 3c3e 5857 6cbc daaa 4a3d
00000250: dcbf 803e db24 74be d7c0 4b3d 19b0 9ebd
00000260: 74ef d0bd 2c3e adbd 8829 7a3e 26a6 4cbe
00000270: 7327 66be 3dbc e03d 8036 553c 57a0 713e
00000280: 0eb1 dd3d 477b 89be f085 99bd 61fa e4be
00000290: b065 b1be 5564 503e 5501 adbe 1107 1e3e
000002a0: 8842 953d f6ff 41be 676d c73c 4136 7b3e
000002b0: 202f 83be 9114 3ebe 1241 adbe 0293 e5bd
000002c0: 4053 7abe cece 0b3d c75d a7bc f32e 47be
000002d0: 6401 243e 2f1f 48be 2671 a13d 3669 0f3e
000002e0: dbbd 8f3d 5c71 183d ab55 063e a959 0fbe
000002f0: be8b 69bd 0262 463d 871a 133e 4dc3 41bc
00000300: 05dc 713e a452 fe3c 2369 9ebc 0ab6 f1bc
00000310: aa73 8ebd 126f f4bc 1b2a 7d3d e7ec 1c3d
00000320: d0a4 80be fa9d ce3d 0edd b33d a478 e6bd
00000330: c7f1 43be a88c 423e 0613 8abe a2ba 843e
00000340: a032 07be 17d1 b03c c084 3dbe 783e f73d
00000350: dc5b be3c 1a00 fb3d fe86 c73d 780e 47be
00000360: 6a98 c6bd 1d73 07be 92c0 193e 7910 07bc
00000370: eb60 af3d b6d9 ac3b 52a2 aa3d f6ca 1dbe
00000380: 3213 2bbe e96d a8be 2686 fc3d 9024 c53c
00000390: 223b 563d 434d 513e 73da 26be c4f8 09be
000003a0: 70f8 0c3e a3a9 6c3e 8f60 4ebe 4c53 7b3d
000003b0: a414 2a3d 5f21 eabd e2ba 793d 0947 08be
000003c0: 7c20 2f3d 8f91 fcbd 0ae6 b53d 7630 e3bd
000003d0: abdd d73d fa06 8c3e 6003 25bc 43fb b63c
000003e0: 4933 9bbe b265 5d3d 32c6 033e fca6 0d3e
000003f0: 0032 86be 46e6 42bc ca90 9abe 597b d0bc
0.041567635 0.12437622 0.036896598 0.18969087 -0.1603885 -0.11583576 -0.0064702085 0.1606108
0.05106784 0.108155236 -0.29765218 -0.2108092 0.20484793 -0.22286357 -0.13164575 -0.13474295
-0.1060826 -0.050514407 0.020161027 -0.10040629 -0.109542266 -0.1505538 0.16709113 -0.29378232
0.04015809 0.11794947 0.27770707 -0.29802057 -0.13834642 0.16927056 0.038702656 -0.09388404
0.09640324 0.029320534 0.1443561 0.10893314 -0.13501601 -0.32672974 0.08362262 0.0092782695
-0.21217102 0.014801022 0.026731174 0.20547733 -0.053849798 0.015879968 0.09777473 0.17428955
0.12009483 0.081965916 0.22365874 -0.008830786 -0.1278374 0.16149653 0.06869833 -0.08399424
-0.04551349 -0.20736538 -0.055740945 0.25202134 -0.05914421 -0.14173147 -0.19428885 0.013019614
-0.11442201 0.103032224 0.2351838 -0.03188852 -0.2868766 -0.11954571 -0.42657006 0.0723496
-0.2293486 0.019174734 0.030691013 -0.18409324 -0.013120079 0.20948453 -0.019962477 0.101548105
-0.046673935 0.11922528 0.12752862 -0.27387223 0.009121556 -0.122239225 -0.00041616723 0.10828717
0.042178094 0.113262676 -0.1643283 0.13811663 0.16600208 0.15180868 0.09289708 -0.19803165
0.0073588 -0.13782778 0.10401612 0.20614563 0.25837663 0.08116568 0.25051978 -0.15218906
0.12533122 -0.1652561 -0.26682585 0.017773792 0.1338829 0.014697447 0.18991783 -0.34438992
-0.32261568 -0.11120709 0.027333817 0.20194726 0.026390769 0.14038034 -0.12721649 -0.19245337
0.09963741 -0.17744699 -0.30950335 -0.309274 0.24316444 -0.100187235 -0.13250057 -0.038071632
-0.10890119 0.17086124 0.039345246 -0.20271991 -0.11757612 -0.13167885 -0.33475822 0.09517859
0.1656732 -0.045030504 -0.075171724 -0.11789142 0.07773418 -0.41108644 0.06481118 0.084516436
-0.23449717 0.18395798 -0.014425121 0.049479343 0.25146377 -0.23842184 0.049744453 -0.07748432
-0.10201922 -0.08459124 0.24429905 -0.19985256 -0.22475986 0.109734036 0.013013482 0.23596321
0.10824786 -0.26851866 -0.0749625 -0.44722274 -0.34647894 0.20350774 -0.3379008 0.15432383
0.072880805 -0.18945298 0.02434416 0.24532415 -0.2562189 -0.18562533 -0.33838707 -0.1120968
-0.2444582 0.03413277 -0.020430459 -0.19451503 0.16016155 -0.19543146 0.078829095 0.14004979
0.07018634 0.037217483 0.13118617 -0.13999046 -0.057018034 0.04843331 0.14365588 -0.0118263485
0.23619087 0.031045265 -0.019337242 -0.029505748 -0.06955655 -0.029838119 0.061807733 0.038311865
-0.25125742 0.100887254 0.08782397 -0.11253479 -0.191352 0.18998969 -0.2696764 0.2592364
-0.13202906 0.021584077 -0.18507671 0.12072462 0.023237161 0.12255879 0.097425446 -0.19439113
-0.096970394 -0.13227506 0.15014866 -0.0082436735 0.085634075 0.0052749766 0.083317414 -0.15409455
-0.16706541 -0.32896355 0.12330274 0.024065286 0.052302487 0.2043963 -0.1629427 -0.13473803
0.13766646 0.23111586 -0.20154022 0.061358735 0.04152359 -0.11432146 0.06096924 -0.13308348
0.04275559 -0.123324506 0.08881767 -0.110932276 0.10540327 0.27349073 -0.010071605 0.022336608
-0.30312565 0.054052062 0.12868574 0.1383323 -0.26210022 -0.011895722 -0.3018859 -0.025449442

actor.2.weight f4 [256, 256]
00000000: 41c4 6e3d 5855 e1bd a45b 633d 925a 4ebe
00000010: 5e0e c9bd 0e66 9fbd 41d2 823d 1373 18bc
00000020: 3494 9abd b5b1 a53d d1a0 ecbd 6570 3f3e
00000030: 1b1a b0bd cc85 9e3d 62ea d6bd 803a 49bb
00000040: 7480 b23c 5dff 4b3d 136b 043c 09f7 053c
00000050: c8af 0abc 049e deba b206 6a3d 2cf7 a2bd
00000060: bd66 513e 088c ee3d 26ee 36be 0adf 383e
00000070: 497d b03d 5467 83bd 63fe 2d3c 6700 d63d
00000080: 5846 9d3d a555 2fbe 0f8d 8fbe 1053 5f3b
00000090: 6544 ee3d 3540 233e d1d5 0e3e b7b1 06be
000000a0: 46d3 0fbe 8b91 0dbc c2f7 0a3e 84a8 dbbc
000000b0: ab6a 913d 0e41 6c3d 1274 923d 386f 0abe
000000c0: cc87 9abc 60dc b8bc a1a9 1ebd 528c 8b3d
000000d0: 56a5 0dbd 94d8 563d 2c70 e1bd c8de 2f3e
000000e0: 9cb9 0f3e c44b 153e 150b 983d 3b06 d1bd
000000f0: d8e9 7bbc 1a5a 443c 2abe 53bd 65f5 053e
00000100: 698f 823d 3c3c c53d 3851 c93c bf1b ae3d
00000110: 20c0 9c3d 3159 0e3e 9a6f 893c 2dca e53c
00000120: 1ff7 27bc 62ec c23d 408f 99bd 6576 f33d
00000130: 4cc5 803c 805b 8f3d a8ba ef3c 1036 dc3d
00000140: 63e1 1c3e 9d87 673e 212f c43b 208a 37bd
00000150: 3971 f43b 6029 68bb 0fe0 8ebd a10f 9c3d
00000160: cf3b b73c 35b9 823d 0e99 143e 25b5 583d
00000170: 000c 26bd 1217 56bd 1001 e23d 0aa0 0c3e
00000180: 1ba0 f63b a0ab dd3c 9078 96bd 5c35 6d3b
00000190: dec5 ba3d b7ca b73d 68b2 303d 7b6b 8bbd
000001a0: ce99 02be a0dd 683d 7ab8 043d 712a 173e
000001b0: 526a c03d 5e4f d83d 1bf7 f23d 078b 443d
000001c0: a5c1 403d 0b6d bbbd 858f 92bd ef85 883d
000001d0: b1db dd3b bf53 96be 8129 91bd 8256 083e
000001e0: 2fb3 633d c491 683d eec9 ffbd 9797 f03d
000001f0: a089 38bd 3294 d43d f9e8 bc3d 4576 213e
00000200: 6b83 093e 647f 393c 3f72 0f3e e02c 283d
00000210: f64b aa3c 3919 7fbc 5a5f 0b3d edb7 5d3d
00000220: 0026 7e3d 0d39 b73d bc98 29bd 8b40 bd3d
00000230: 74e7 2cbc 6935 2c3e a686 0abe d34a eabc
00000240: c151 fc3d b78d 503d aab8 af3d f335 bebd
00000250: 43bf 9e3d 4407 d4bd adbc 883d 77bb 853c
00000260: d72f 3bbd 4f06 ab3c 1913 c53d ff4e 003e
00000270: b56d 953d fe56 013e fade 62bc b38f 88bd
00000280: e6a1 0b3e d136 fdbb 767b 573e ab65 c93d
00000290: d6f5 a1bd c6f8 92bc 6dae f93d 9c04 bebd
000002a0: c631 b2bd f4f6 a63d a235 c23d 13d4 fbbc
000002b0: 0df3 883d 8039 6e3d 8483 92bc 3b7c b03d
000002c0: f206 d2bd 13d0 00be 2655 00be 73a0 3abe
000002d0: a03a ae3d 9001 353e 8edd c93b 87d8 dcbd
000002e0: c8db d9bd ae56 2ebc ebae 8b3d 17e8 093e
000002f0: 2650 e53d f4b2 fcbb d587 5bbe 5b96 e83d
00000300: 519f 31bd c85b d3bd 96f2 a9bd ce12 5b3d
00000310: 1017 663d 1531 503e 3a59 c9bb 15ae aebd
00000320: 4c50 913d e785 11bd 490c 653d 61c9 903c
00000330: 845e 7b3e 3fd0 3a3d d495 55bd f284 68bc
00000340: 3bfa 4b3d fc25 6b3d 91ce 18be 77b5 b0bd
00000350: 70c3 a53d f97a 1ebe dfdd 103e 5b57 bf3d
00000360: 683e 933d 672e a4bd 2760 bdbd 380e e33c
00000370: c5e8 e93d acf5 dbbd 49f2 493d 3010 0f3e
00000380: 5832 9e3d 26cc b5ba da97 97bc e9cf e73c
00000390: 65a6 f33d 068e 2dbd f92a 813e 00f8 e3bd
000003a0: 11d6 2bbd 1e67 d33d dfe7 d93c 1d6b bc3d
000003b0: e649 993c f48d 133d b4d3 393d 93a7 3b3e
000003c0: 5084 bbbc 1a76 bd3d 66c6 d73d d1e3 283d
000003d0: 3237 49bd a44c f3bd 3527 c33c fccb 1cbd
000003e0: 0b17 c43d a8ed d43d c754 f83d c27e 09bd
000003f0: c595 07be 39eb b43c 8bfb 8c3d aec2 0d3e
0.05829263 -0.11002606 0.055507317 -0.20151737 -0.098171934 -0.07783137 0.06387759 -0.00930478
-0.07547799 0.080905356 -0.11554111 0.18695219 -0.08598729 0.077403635 -0.10493924 -0.0030705035
0.021789767 0.04980408 0.008082169 0.008176574 -0.008464761 -0.0016984348 0.05713529 -0.079573005
0.20449348 0.116478026 -0.17864284 0.18053833 0.08617646 -0.06416193 0.010619733 0.104492955
0.07679433 -0.17122515 -0.28037307 0.0034076609 0.11634139 0.15942462 0.13948752 -0.1315373
-0.14045438 -0.008640657 0.13571075 -0.026813753 0.071004234 0.05767923 0.07151045 -0.13518989
-0.018863581 -0.02256602 -0.03873599 0.06813873 -0.034581505 0.05245264 -0.11007723 0.17174828
0.14035648 0.14579684 0.07423989 -0.102062665 -0.015375577 0.0119843725 -0.051695026 0.13081892
0.063750096 0.096306294 0.02457486 0.08501386 0.076538324 0.13901211 0.016776849 0.028050506
-0.010251789 0.09517743 -0.07498026 0.11887816 0.015719078 0.06999874 0.02926381 0.10752499
0.15320353 0.22610326 0.0059870635 -0.04480946 0.0074597863 -0.0035425052 -0.069763295 0.076201685
0.022367386 0.06382982 0.1451151 0.052907128 -0.040538788 -0.052268095 0.11035359 0.13732925
0.0075264103 0.027059376 -0.07347214 0.0036195135 0.091197714 0.08974212 0.04313889 -0.0680761
-0.12753984 0.056851983 0.032402493 0.14762284 0.09395279 0.10562013 0.11863538 0.04798415
0.047059674 -0.09151658 -0.071562804 0.06666171 0.006770574 -0.29360768 -0.07087994 0.1331425
0.055590805 0.056779638 -0.12489687 0.117476635 -0.045053124 0.103798285 0.092241235 0.15767772
0.13429038 0.011321876 0.14008425 0.04105842 0.020788174 -0.015569978 0.03402648 0.054130483
0.06204796 0.089464284 -0.041405424 0.09240826 -0.01055323 0.1681725 -0.13527927 -0.028600132
0.12320281 0.0509164 0.08580144 -0.09287634 0.07751324 -0.10352948 0.06676612 0.016324742
-0.04569992 0.020877032 0.09622783 0.12530135 0.072963156 0.12630841 -0.013847107 -0.066680335
0.13635978 -0.007727482 0.2104319 0.09833845 -0.079082176 -0.01794089 0.12191472 -0.09278223
-0.087009 0.08152571 0.09482886 -0.030740773 0.06686983 0.058160305 -0.017884977 0.08617445
-0.10255231 -0.12579374 -0.12532482 -0.18225269 0.085072756 0.17676377 0.0061604446 -0.10783487
-0.10637623 -0.010640783 0.06820472 0.13467441 0.11196928 -0.0077117626 -0.21438535 0.11356803
-0.043364827 -0.1032024 -0.08298223 0.05348473 0.056174338 0.20331223 -0.00614467 -0.08529297
0.070953935 -0.03552809 0.05591992 0.01767415 0.24547774 0.045608755 -0.05214484 -0.014191853
0.049799185 0.05740927 -0.14922549 -0.08628362 0.08093917 -0.15476598 0.14147137 0.093428336
0.071896374 -0.08016663 -0.09246855 0.027716741 0.114213504 -0.107402176 0.049303327 0.13971019
0.07724446 -0.0013870045 -0.018505026 0.028297381 0.118969716 -0.042371772 0.25228098 -0.111312866
-0.041952197 0.103224024 0.026599823 0.09200118 0.018711995 0.03602405 0.04536791 0.18325643
-0.02289024 0.09251042 0.105358884 0.041232888 -0.049124904 -0.118798524 0.023822406 -0.038280472
0.095747076 0.10396892 0.12125545 -0.03356815 -0.13240726 0.02208482 0.068839155 0.13843796
